src/checkpoint/modelClassification.pth (torch_old, 55553 bytes, 10 tensors)

cnn1.weight f8 [8, 1, 4, 4]
00000000: 2a3b ce77 63d3 b93f d697 77ac 018b c7bf
00000010: 8c13 3b10 1705 cd3f 3f34 7906 1413 a4bf
00000020: 6beb 3c7c 64c6 c53f 51b1 f1fa cdf5 c3bf
00000030: 72b9 83c7 aca8 b43f ae97 ef72 463e 8cbf
00000040: 0271 2235 c543 b03f 8200 ec4b 5163 c23f
00000050: 325c 7844 b436 c43f db11 4e51 205d b0bf
00000060: 8e91 e199 dbce c33f a8dd 0c7e b8f6 a4bf
00000070: 0caa 8574 d661 673f 5ad6 7756 55d4 c13f
00000080: 33a4 213a 8834 cbbf c4f6 35a4 64a7 93bf
00000090: e01a 8e18 9bf3 9c3f 73f8 9d54 b2fc bcbf
000000a0: 6515 7ab4 2477 bd3f 3643 f2b3 a18b 503f
000000b0: c931 ebf1 ef6b c53f a4b3 f341 d920 c13f
000000c0: 9e09 d9ac 906b c93f aa3b f1bb 41c3 a0bf
000000d0: dbcd 0bf7 6393 c4bf c680 d4e6 527f c93f
000000e0: 9ebd 873e e5c8 a0bf cf3c 76af 16d4 be3f
000000f0: 5b24 97f0 4a57 883f a5d6 63e1 a0bd ccbf
00000100: a0b8 caa3 bd6e c63f 910c bc2f 5b95 b2bf
00000110: eabe 2eaf a9ed b53f 3800 ade8 5347 9dbf
00000120: 0d29 d4b3 286d d2bf 0db6 eb40 232c c9bf
00000130: f59a 5324 61fc 8dbf e240 cc19 fe12 c2bf
00000140: 1e51 b2b1 e1cb b83f 2719 8470 655a 933f
00000150: abd1 ca7f cb1f bfbf 6df9 df19 6d0a c9bf
00000160: 5afc 4162 0fff bd3f cc1d c11f 0204 ae3f
00000170: 425e 1cf6 d067 d53f a8ae 149a 402d b13f
00000180: 5717 67e3 7e69 b63f 2012 6876 caa4 c63f
00000190: d9a1 fd16 42a9 c7bf dd37 4520 485c c33f
000001a0: 9626 4835 f9de b43f 113d 3598 4cec cdbf
000001b0: b733 8e5e 5af5 b6bf 999a 7fbd 77fe bd3f
000001c0: b05e 3ac1 4720 b0bf 6c15 fea2 e99e c83f
000001d0: fcc4 6ec8 85b6 cf3f 52a5 1fd2 b296 b03f
000001e0: b824 86e0 f531 a9bf e7c5 570a 8a79 a33f
000001f0: 2a15 9da3 df6b b7bf 358d e059 3cba b7bf
00000200: 3df7 7367 5140 743f 439f 0e75 dcea af3f
00000210: 20b8 0551 23d9 cfbf 0e7b 0f03 62c6 aa3f
00000220: 6e1d c6e1 e410 723f 2b38 0599 5dab cb3f
00000230: 90e3 5177 49f8 b1bf 6ad8 719e e734 c6bf
00000240: cefa 94f4 b112 c93f 94cb 08c4 cb7d bc3f
00000250: f332 bd33 c452 c7bf b31a 1907 9037 90bf
00000260: dc4c 228d 95cf ac3f 9fdc ab04 5f95 d13f
00000270: c632 07d0 5932 aabf 26c3 da6a 1d53 b7bf
00000280: c29f bb59 a746 b63f 1289 ca7f 35f6 bf3f
00000290: 8b82 5bab d4f1 c03f f54e 6247 ae69 c63f
000002a0: f099 5430 05c4 c4bf a856 8883 c129 bd3f
000002b0: d304 6168 97eb 963f 5273 b5a2 46c5 c8bf
000002c0: e0ea 82c2 09e4 a23f edaf c864 b0df c0bf
000002d0: 35a2 ff15 c52e cc3f 4e28 43f1 e0a1 b1bf
000002e0: c1f3 f745 3d56 95bf 9b3f 02d8 598c c63f
000002f0: 0b92 4913 7893 b0bf 49c0 eadd 1486 bdbf
00000300: 7d90 4cf8 081f c5bf 1fd9 cc59 7682 b7bf
00000310: 6d51 8316 2dce b0bf 2669 359c 7eee d03f
00000320: 23b0 e6cd ecc4 d2bf f3af 4553 52b4 ac3f
00000330: 4c89 8e20 f14c 743f 4018 aec0 cb5f a53f
00000340: dc77 7be4 b68b cebf cb8b 6718 08f9 c4bf
00000350: d8eb b6fc de8e c93f 5ce1 a588 bf2a c23f
00000360: 3b6a 3644 5429 cbbf 74dc c008 28eb c03f
00000370: d31d aa24 7478 ca3f a942 8d05 a846 b83f
00000380: 45c9 5c0e ac56 c23f 8572 160e dd20 c63f
00000390: b7f1 ce7c 979c c3bf 6d21 28fd 9a7d 973f
000003a0: 31cc 4e6a 346c a43f 37bd 0238 61e5 843f
000003b0: 7e55 4ca5 0b35 b13f 6ebd c6b2 217d a9bf
000003c0: ce70 4378 8f06 c63f 94df 4a42 f404 bd3f
000003d0: 5bf7 e0db 0447 c43f 6c93 b667 a880 c6bf
000003e0: 66df b62a 1ad8 b03f 2437 441d 5dc1 b3bf
000003f0: 2078 fa8d 8540 c83f 15c3 61e2 1360 cd3f
0.10088178324643296 -0.18392964287994457 0.22671783726232453 -0.03920805529615067 0.1701169592505168 -0.1559388613999411 0.0806987750145021 -0.013790655500951345
0.06353409335355667 0.14365593154071027 0.1579194387747705 -0.06392099366173147 0.15475029958464542 -0.040944829356188095 0.002854269845717688 0.13929239961696532
-0.21254065359542693 -0.019193241617805126 0.028273032544826715 -0.11323084417196742 0.11509923368619963 0.0010098532800705945 0.16735648453176413 0.13381496162710704
0.19859512748560076 -0.03273969096391423 -0.16074800074385007 0.199198115072255 -0.032782710917554456 0.12042371543633411 0.011885247676121027 -0.22453700070734786
0.17525454042101263 -0.07259149470705696 0.0856576969806572 -0.028592406345751636 -0.2879125362529898 -0.19665947599371272 -0.01464153186902937 -0.14120460757886294
0.09686098659796413 0.018899521820480516 -0.12157890195778147 -0.19563068164275013 0.1171731581580259 0.05862433087946392 0.33446144136675937 0.06709674607980765
0.08754723598312118 0.17690401822632484 -0.184852849222138 0.15125371528341605 0.08152730513406889 -0.23377377922086187 -0.08968128975375476 0.11716411949564999
-0.06299255816918037 0.1923496290075194 0.2477576473880062 0.06479947690936186 -0.049209293039049695 0.038036645662838535 -0.09148977035973319 -0.09268548197046729
0.004944150910203335 0.062338723458479815 -0.24881402450722678 0.05229479110106726 0.004410642690693007 0.21616716357897423 -0.07019480860789273 -0.17348952518995314
0.1958830303428471 0.11129449401850727 -0.18221333051987862 -0.01583695452998297 0.056271241644162834 0.27474189239678454 -0.05116539635091537 -0.09111198290589737
0.08701559010262286 0.12485060090924474 0.1323800884920455 0.17510012136028022 -0.16223206386457845 0.11391839467281761 0.022383085008418412 -0.19352038330807858
0.0368960428181333 -0.13182644768801258 0.22017730306767339 -0.06887632265275664 -0.020836789508382973 0.176158171151198 -0.06475019904025474 -0.11532717149634765
-0.1650096142194605 -0.09183444683444407 -0.06564599799759714 0.26455655340909556 -0.29326934917003394 0.05606324450022262 0.004956190016772343 0.04174648978282436
-0.2386387458454341 -0.1638498419916615 0.19967257823540652 0.1419295708872238 -0.21219876604739504 0.1321764033070597 0.20680095472583435 0.09482813010732606
0.1432700224045879 0.17287791431308022 -0.1532163009086511 0.022940084172689824 0.039888036705996284 0.010203132173357872 0.06721565995788656 -0.0497828036053488
0.17207520839918405 0.1133568441244946 0.15841732727306632 -0.1758013254558607 0.0657974581034729 -0.07716924633515682 0.18946904594935265 0.2294945578937805

cnn1.bias f8 [8]
00000000: 0842 d82c 3af8 2fbf 352d eee7 a4e0 7bbf
00000010: 2c67 8ac6 8746 97bf 3ec2 0bf3 cd6a 35bf
00000020: fb4f 0047 0fc5 763f 1399 e4df 5740 36bf
00000030: 8a02 ac26 d4ff 93bf be33 564f c987 443f
-0.0002439089789025991 -0.006806034244515137 -0.022729989521940983 -0.0003268006139896285 0.005559024502890249 -0.00033952851653608443 -0.019530596599909113 0.0006265385588207701

cnn2.weight f8 [8, 8, 4, 4]
00000000: 72ff 18e4 fd21 a43f 9e62 1c60 6cc1 a73f
00000010: b336 312f 93df 80bf 4400 0891 741b 9fbf
00000020: 224d 96b1 253e 5e3f b1a4 ed87 16f6 6bbf
00000030: 63eb 02e1 dfe5 a5bf 4a5d 7482 07f1 b6bf
00000040: 9c65 8456 106c 933f a025 199d 6f29 a33f
00000050: 1618 c062 8215 94bf f3be fa40 0f14 b13f
00000060: 9ed4 fc9d 9597 b93f 5aa0 bc5d 7959 a63f
00000070: 1f31 8320 fdbf b03f 7ed9 3bf9 0d1c a93f
00000080: 3294 169f 2e50 8cbf fe09 910a e82e adbf
00000090: 820e 581d fef2 663f c38a 2b49 e102 a5bf
000000a0: 04f2 f60d b213 ac3f e6d3 6b57 ff49 81bf
000000b0: 5836 7005 a7ca aebf ffd5 520f e864 693f
000000c0: 33b7 f0f3 3ccc 633f 561f f992 dea3 babf
000000d0: 8765 8a3a 9c3e b2bf 4226 bf53 fc60 873f
000000e0: 5bd2 ae81 78be 6ebf 77ce 6f6b eecd afbf
000000f0: ef3f 7b20 4c10 b23f d38e c1a5 5e8e 953f
00000100: d095 8c7a f7ef a9bf d255 4367 8bdf c6bf
00000110: 9e67 1dd5 9f1f b0bf be16 3345 a9c0 b33f
00000120: b440 8034 3e07 adbf 92e6 9ae1 708f babf
00000130: c0e6 076d 2824 933f 8902 551b 4805 943f
00000140: c6f0 52cc a4f6 8ebf 64fe 4679 bb40 90bf
00000150: 0101 bfae 516a a13f 88ff 756a 6a69 afbf
00000160: c5d2 d8fa 42c4 bc3f 4691 6fee 37b0 b53f
00000170: 31f8 72d0 4eba 563f ebee 74dd 2fe2 913f
00000180: e021 6e9e 9acc b6bf 61b6 9a60 663c abbf
00000190: e45f 620d 6139 9a3f 5b76 e76a c373 a6bf
000001a0: 41e4 7e3a e0fc b1bf 0cb4 4139 bb6d bcbf
000001b0: cd8e dd25 86bd 9d3f c73a 9909 f908 98bf
000001c0: 721e 05a2 d0c9 913f 6d6c 163c 786e 93bf
000001d0: 8b0e 1ae4 7abe a83f a0a6 64bd cd81 8c3f
000001e0: 9586 5257 f549 77bf bb65 a152 37ce a4bf
000001f0: 82ac b797 d628 9bbf 974a e187 6970 ad3f
00000200: a2ad 83f6 7f4a a1bf d997 0378 bd3b a3bf
00000210: 21bb 606f ba25 84bf 1946 0265 9bb8 8dbf
00000220: 35d5 5104 bab4 96bf 2b4e 7480 782a a33f
00000230: f494 e5de 5234 8a3f fde2 59a4 ce2a a33f
00000240: 9614 9d68 28ee 9cbf 1dcd f76e 89ec a23f
00000250: 1c81 74ad f5e0 ae3f d408 7d29 0c3d 8ebf
00000260: d367 eff6 626a c03f 6c64 9823 9a0d 993f
00000270: e1c8 2b99 bf81 8cbf 4a4a eeb1 4727 9c3f
00000280: d81c b802 1243 5bbf 2344 6205 33a9 a53f
00000290: 12a6 2ebf dad9 b9bf 554e 0d1d f5a0 b2bf
000002a0: e57e ce53 e67e ac3f abd9 5bd7 7914 a7bf
000002b0: 9ac1 5209 bf2f a43f 2f7a ff85 4ea2 583f
000002c0: 782c 8f9e c443 b23f fa01 3453 0b89 b03f
000002d0: 0bfd 32d5 1350 a63f 7eea e7cd 260b 9abf
000002e0: 6827 2d65 7fc8 a43f f03b d5e1 ebca a93f
000002f0: b9cf a162 216f a5bf 3936 b2ad 02d0 91bf
00000300: 0a09 64b6 d40a a8bf 0245 138c ec00 a0bf
00000310: eace d1d2 b2b1 88bf 9394 c76d 903e b0bf
00000320: 0f3c 11c3 9cd9 a0bf 3bef 7340 efeb 943f
00000330: 09f0 fa43 c086 b93f 0c95 9272 19e3 a6bf
00000340: deb5 0002 bb0e b0bf 90f9 8c95 2779 9abf
00000350: 8801 3f71 8781 b63f d94e 5d9e d7ab 853f
00000360: 0ae4 68a9 29ed 80bf c01c afbf 5f18 9a3f
00000370: d746 806a bc81 a73f dec0 15a3 0c80 913f
00000380: 89c8 b276 e516 a3bf 307d 9b17 2dd1 ac3f
00000390: 486d ca05 7217 94bf b6a2 e61b 6801 8abf
000003a0: 9f38 73f8 1cf9 94bf 0501 048a 3a68 a93f
000003b0: 73ba f122 fc80 603f be18 c4e8 a74b a8bf
000003c0: 7a41 2460 ac12 ac3f 50e4 49b0 9d9e 8bbf
000003d0: 48e1 2a6c 6fdb aebf 245c 744d 9114 84bf
000003e0: 516c 041d 7063 b83f 4c85 360f bed8 a43f
000003f0: ee1f d821 7e05 b53f 21c6 4d16 304d 8fbf
00000400: d286 c167 fc0d 8c3f f50d d5d1 8801 953f
00000410: e746 dd2c 53c9 ad3f 81aa 0e87 5f37 ad3f
00000420: 9b30 7c5c 88c8 a13f 8be4 21d2 72d8 a43f
00000430: 74eb 9eb9 1551 813f 538e fe83 7071 93bf
00000440: b588 5dcb ce3a 96bf 3698 2bab 9da9 8dbf
00000450: a4cb 4bef e5c6 66bf b5e5 87d1 a064 96bf
00000460: 352f 4382 8f4b 843f 50ff 7a76 325a 4c3f
00000470: 0fb9 2388 fdb2 9cbf b3bc 3cea a3f8 a5bf
00000480: 7ada 95e1 059e a03f b386 82ec 1f1b bb3f
00000490: 238e 46ab ae0f a33f f10a 31e9 33a6 8bbf
000004a0: 3a2d a5f8 d681 893f fcd5 bd0c 9f6f b33f
000004b0: f6ea e87c 2db8 a93f c906 1cfa 9de2 91bf
000004c0: 2fb7 1b1d 99dc b03f b723 49d3 36c8 96bf
000004d0: b9e2 af75 e60a a2bf d26c 60cb 3d0c 78bf
000004e0: 5158 8a14 d7e3 a6bf 3e97 2236 8730 91bf
000004f0: e44f b254 1924 873f e6be 1013 39e0 a5bf
00000500: 1272 9a2d 5be1 b63f b95e 1818 0dc8 b53f
00000510: 45df 2cb8 f58c 65bf 49ac 7486 fa57 9c3f
00000520: 781b 7e8b 3e00 b2bf 090a 3903 971e a53f
00000530: 8d6e f578 d386 7bbf 7c01 b08f 5aef b53f
00000540: 0104 a5e2 ff41 a5bf e18a cced 509c 8abf
00000550: 6c71 d97a 3bcb b43f d6c3 a14a d3c8 b33f
00000560: a19a e942 9155 b33f dbd4 fd88 e427 953f
00000570: d805 7ee8 7131 b3bf e3fb 5be1 7815 bcbf
00000580: 7713 85c9 4f16 a23f b885 322c 2c52 b63f
00000590: df9c f72d 3ffe 913f c861 9fb5 7332 b73f
000005a0: 1dea c463 7d13 b63f 8b9f c7d4 a636 4cbf
000005b0: cb8e 4536 9d6e 8ebf 8653 0b0b 6321 91bf
000005c0: 9a98 2a81 9e8d a83f a5d3 78ec d72c b93f
000005d0: d16a ac26 2263 b53f f5aa c800 1fa4 b6bf
000005e0: b431 6ae4 4d35 94bf b08f ad59 4caa 3a3f
000005f0: 0510 4f3b 3467 afbf 1dc4 a599 8fbc a1bf
00000600: 1246 c7c8 29d9 76bf 946b 6585 f8a2 9d3f
00000610: fc67 472e 5560 6e3f 1acd 68d5 dd07 9c3f
00000620: 7dfb 0ba2 22e8 a93f 4007 da80 43e1 90bf
00000630: 5224 5550 1b55 94bf 2722 b12c 689f 98bf
00000640: df21 a394 48ad 44bf c3fe 75db e691 733f
00000650: 50c4 7d80 7c1b 713f de22 5bdb d308 95bf
00000660: 7cf9 3f75 437f a73f 1acb f08a 2c22 bd3f
00000670: 78fe 8201 eace bb3f 9267 2ae1 8307 b33f
00000680: 8b52 1e69 abec a73f 3da6 b0d0 9d84 a63f
00000690: d3d9 8c18 20f2 b63f bbf9 4140 37f6 a23f
000006a0: 318f 9cfb 33f8 a9bf 5aaa 8e01 5ec3 92bf
000006b0: cd5b d514 05d8 a1bf 11e6 4bf5 e502 9fbf
000006c0: 12d4 e8ee dd0d b03f 6437 6540 0a3b a53f
000006d0: cbae b07b b0bd a8bf 2229 2bc7 d5d1 b7bf
000006e0: a3e3 2f7e 3eca b03f aa0f 5d5d 3d4c 52bf
000006f0: f461 fa06 a807 9a3f a50f 52f9 e6dd a7bf
00000700: abb6 107e d992 a1bf 720c cab2 7fa9 a03f
00000710: b36e de9b 85d2 ae3f 7af5 5082 25c0 a83f
00000720: 3578 4b1b 3663 b0bf f0da 47a5 dae3 b7bf
00000730: 9680 45b2 9597 7cbf ef14 7207 9c1b 8bbf
00000740: 7f10 abec 3f73 953f de1c e998 4047 7ebf
00000750: 8e79 dafb 17a0 a5bf 34b2 35da 8125 89bf
00000760: 747f a1e8 44ef a33f f35b e0d4 5ce0 a93f
00000770: 7e79 3a96 ab10 af3f 517a 28fd bce8 bd3f
00000780: 4c20 0632 d726 acbf 3c81 75ae b7e1 2abf
00000790: 14c3 8c91 e318 89bf 42f5 8939 40b0 93bf
000007a0: eff4 39f5 b5b7 4cbf 3a5e 5f37 7089 b53f
000007b0: cb7a 67d9 0468 a73f 0d94 b6e6 84e7 8f3f
000007c0: d945 17e2 1f50 b43f 5675 8e7a 6afa bb3f
000007d0: 8e13 a09b 675c 70bf 085c b771 f287 a73f
000007e0: a7d5 ae0a c758 b73f 7c43 247f ed93 903f
000007f0: c144 8dbf c844 b53f c90f aa18 8788 91bf
0.03932183656115641 0.04639757798412812 -0.008238935353939913 -0.03037817130280042 0.0018458717443977164 -0.0034132423456197593 -0.04276942846032374 -0.08961531577039242
0.018966918259229013 0.03742550652220733 -0.019613301541561233 0.06671233498013489 0.09996924502486812 0.043651383106692435 0.06542951625596459 0.04904216449169761
-0.013824810247408423 -0.05699849251734078 0.002801414792658553 -0.04103759782971885 0.0548377649351757 -0.008441920142539371 -0.06013986531625609 0.003099873773488637
0.002416724251381641 -0.10406294906817712 -0.07126785687650826 0.011415454202409529 -0.0037529328960437653 -0.06211800633891767 0.07056117814067851 0.021050909869144995
-0.05065892573319852 -0.17869703809871723 -0.06298254921912735 0.07715852679674648 -0.05669588461762612 -0.1037512350839285 0.018692618994441856 0.01955139796086994
-0.01511887310550043 -0.01587193420141232 0.03401427515155043 -0.061351132865637814 0.11236971496766575 0.08472013064562586 0.0013871926947071173 0.01746439732708797
-0.08905950897145187 -0.0531951897549845 0.02560950893584381 -0.043851954269240344 -0.07026482990376427 -0.111049367407489 0.02904328924286297 -0.023471728525971593
0.017371425522723923 -0.01897609583612019 0.04832824739881144 0.013919455854721818 -0.005685766566928448 -0.040635804020620246 -0.02652297307023988 0.05749826224986981
-0.033771513788305244 -0.03756515588774762 -0.00983758594892731 -0.014512266178175403 -0.022173792375231833 0.037433400803049764 0.012795112063665993 0.03743596798171287
-0.02825225008497919 0.036960882945914465 0.0603100561368157 -0.01476487638104055 0.12824666077977884 0.0244659504151951 -0.013919350492390627 0.027493591532741037
-0.0016639400372485038 0.04230651322098591 -0.10098044555220323 -0.07276851615216036 0.055655668001461746 -0.04507809404269677 0.039426774871915884 0.001503540690457005
0.0713465582950209 0.0645911291248992 0.04357969262627578 -0.02543316489934932 0.04059217557967437 0.050376292531488676 -0.041863482751892396 -0.0173950594440184
-0.046957633270738056 -0.031257049654991334 -0.012057683047010898 -0.0634546535507801 -0.03291025048439888 0.020431268986597955 0.09971238765405145 -0.044701380954658004
-0.06272476958175541 -0.025852793219422632 0.08791395678327352 0.01058166935005238 -0.008264852030253084 0.02548360450216758 0.04591168212949775 0.017090032056729203
-0.03728406022982351 0.056283387309799315 -0.019620687106550322 -0.012697995521038546 -0.02048154131335222 0.0496233266330837 0.002014629797080497 -0.04745220867521159
0.05482996629337129 -0.013486129705812783 -0.06026790805248311 -0.009804854561066341 0.0952673025935138 0.04071611343102663 0.08211506201052973 -0.015283942871721358
0.013698551098232956 0.02051366596903211 0.0581766121164387 0.057063088642583366 0.03473306778877935 0.04071387114613242 0.008455438353726065 -0.01898742490415224
-0.02170870891803452 -0.014483672891810167 -0.0027803889191714993 -0.021868241108654114 0.00990974537162224 0.0008652445221386338 -0.02802654403142762 -0.04291259989110454
0.0324556196091423 0.1058826401154203 0.03722902146116904 -0.013500600389425329 0.01245468088440892 0.07592195569107923 0.05023328923967611 -0.017466038122626402
0.06586605988169646 -0.02224813141427592 -0.03523941218003785 -0.005871049294025004 -0.04470703244912556 -0.016786682776589894 0.011299322030289667 -0.042726310326882275
0.08937616217958347 0.08508378828298192 -0.002630691452761543 0.027679361778762766 -0.07031622796612946 0.04124900736180243 -0.006720377029832425 0.08568349845882567
-0.04151916162164327 -0.012993461854028112 0.08122607945683108 0.07728310176913963 0.07552440532308903 0.02065999113206805 -0.07497322012024854 -0.10970263959823927
0.03532647452315179 0.08719135359799324 0.01757143705426933 0.09061358627457772 0.08623489080211084 -0.0008610071759535971 -0.014859417170277741 -0.01672892336758338
0.047955468432790485 0.09834050677529989 0.0835439056794869 -0.08844178933274434 -0.019734589639982494 0.0004068790819273761 -0.061334259261940395 -0.03464173079090236
-0.005578196735272838 0.028941996709686515 0.003708044403748721 0.02737375845954402 0.05059917667494227 -0.01648431276272011 -0.019855906274902253 -0.02404558918741109
-0.0006310085675745278 0.004777814661224236 0.004176603637334145 -0.020541486991336615 0.045892818510753636 0.11380270378212423 0.10862600838572145 0.07433342215736463
0.046727520543901134 0.04398053333745764 0.08963204001779639 0.03703472766300161 -0.0507217640536325 -0.018323391766595122 -0.03485122565569263 -0.03028449353857893
0.06271159250975725 0.0414660647971761 -0.0483222151745771 -0.09304557907595215 0.06558600025881715 -0.0011168097748432784 0.025419831682116326 -0.04661485475028763
-0.03432349838145162 0.032543173384532845 0.0601999047059655 0.048340961606736024 -0.06401384512307191 -0.09332052741215668 -0.006980499984223473 -0.013236254670355467
0.020947455234605613 -0.007392170270185986 -0.04223704289801154 -0.012278570625050646 0.0389348539326865 0.050539875970734637 0.06067405899851773 0.11683255367868496
-0.0549838303150528 -0.00020509116368839532 -0.012254503135041207 -0.019227031242271105 -0.0008763922182450072 0.0841283927141995 0.04571547654972149 0.015578306475456239
0.07934760350988003 0.10928979389287483 -0.003994374006656266 0.045959068662050184 0.09119838724912786 0.016189299473868143 0.08308081318434103 -0.017122374420537576

cnn2.bias f8 [8]
00000000: 980c 2d91 65f8 1b3f 71c4 9793 a902 853f
00000010: d85d 129c 329d a2bf 4d6d a725 f6ea 8b3f
00000020: 835a 4774 de5e a23f 71e9 281d 2a38 76bf
00000030: 7eeb 3a71 a973 913f 07da a385 ab7d 723f
0.00010669822613089614 0.010258984390903532 -0.03635557322666799 0.013631747268780936 0.03588004273813274 -0.005424656398242398 0.01704277757265115 0.004514379508910433

cnn3.weight f8 [8, 8, 2, 2]
00000000: e918 24a8 b32b 82bf e6a1 8ab6 8650 b7bf
00000010: e2c6 1dcb a35c be3f 0745 5ed7 c0cf b9bf
00000020: 629e a7d0 1374 a23f a0da 17ce 86e2 bd3f
00000030: df3a f737 487b bebf 9716 7a60 d541 b4bf
00000040: 6ef6 a88b f199 c33f b99e 1176 b8e7 92bf
00000050: efea 79ed fa51 c43f 1eb4 811e ea8d ae3f
00000060: 50e1 ad33 8ca0 b0bf ec22 a236 191f c53f
00000070: 7d79 7802 0788 b03f 71ec 37b0 4b76 bd3f
00000080: a502 ce96 4c12 983f 4b99 2a95 f7b0 9ebf
00000090: 78e7 f8d5 43cd a8bf f07d c638 285e 9e3f
000000a0: 676e cb1b d00d b7bf 2cdc 9dcf 49ac 963f
000000b0: 55d9 673c 03c1 ba3f a758 e745 84b3 a73f
000000c0: 2642 02db fe4e bebf 954c 4579 086a b8bf
000000d0: 8db2 dd7d 82b5 a13f 8778 bbf6 bb87 d3bf
000000e0: 2850 abea d36d c0bf a03e 2144 4316 843f
000000f0: a177 e2ae af1f 913f c22a 5ff2 4459 c1bf
00000100: 038a 9a72 4844 b33f 0cc6 5173 4797 c13f
00000110: c0fc ea93 88c3 b23f c93e 0c53 654a 88bf
00000120: 3064 760e 10f3 923f 538b 5877 684b b4bf
00000130: 0452 e86b 9978 c43f 3054 b6d8 07c0 bfbf
00000140: a7c4 e7d5 a151 bd3f 7e69 29cd a223 c4bf
00000150: fa2c 3f4d caf0 babf dc70 39ba 6f8f c2bf
00000160: 1359 470e d2e8 c03f 9cf6 aaf1 3208 be3f
00000170: 1092 e62f 7b03 b03f d80e a757 04b7 bb3f
00000180: 757f b5fa 34fe a4bf 2670 71c3 2ebd d23f
00000190: 8be7 eb74 52fd ab3f 0c89 cb7c ae52 cc3f
000001a0: ff9b f604 b5ee b4bf 7eb6 abc2 4541 92bf
000001b0: 554f 6a68 6e58 b53f f8a3 6168 5482 9d3f
000001c0: bf89 dc42 336c 953f d878 2296 0630 853f
000001d0: e1c6 9a05 8453 b13f 3b68 d1d8 0cdb b5bf
000001e0: f8ee af4e 9892 c13f 94d1 ee0c 0bbe c7bf
000001f0: a065 0692 6126 743f 1e80 b7aa b526 8fbf
00000200: 363f bc1a 0f1b 70bf f822 c6b8 abcf 893f
00000210: a685 301d 6447 69bf d460 faed 6831 c4bf
00000220: d90e 1534 49f2 9a3f e69f e480 a830 bbbf
00000230: 9efd 1ab3 b542 8cbf c650 5b73 d5c3 bbbf
00000240: 0044 b192 3036 aabf a3ef 33a1 711d be3f
00000250: 2434 533b 2854 a2bf fbe0 a933 6dfc bcbf
00000260: d1b2 caca 9e38 7a3f cdd1 0ebc ca13 b53f
00000270: bf3f 386b 9692 ba3f 70df a2cd 58ee c43f
00000280: ed14 126f 79e1 b0bf 110e e0a2 cd79 87bf
00000290: d0e1 595e 2cdc b7bf 4e77 5b8a 6d43 7bbf
000002a0: decf 9882 63d3 c03f f785 93be 1ce2 c0bf
000002b0: 6a9b 9ad3 ca27 c23f 9a03 7434 c32d d03f
000002c0: 4f0d d746 31e1 c03f 7a0f 1cf4 82a8 bb3f
000002d0: 2bf1 7e42 65fd bd3f 01bb bc27 939b bdbf
000002e0: e0c5 ce75 61fb 74bf 7f4f 3650 797e c63f
000002f0: 9af0 3ab7 b131 76bf 6a90 c504 c774 b73f
00000300: 155b a522 5232 9d3f 8295 624e 6545 c6bf
00000310: 5cb2 04bb 3c14 be3f 5e91 5a52 7b8d b7bf
00000320: 06db fc3c f7d6 b63f 343f 29c4 1737 b13f
00000330: 532a fd7a f876 bd3f e446 0583 c0c1 c0bf
00000340: 9819 986b 89a4 babf d130 ffe5 4e2e 5dbf
00000350: 49f4 f647 bfe6 97bf 5b99 4fd8 f627 afbf
00000360: 18ba b60f ebf0 c23f a83d 7718 3a72 c23f
00000370: 691d 927e 47b0 a5bf 6ce2 c771 c3da c33f
00000380: 5ed6 6da7 3b51 ccbf 57f4 1b06 cf29 b4bf
00000390: 31eb 4d9e 105a b23f 3a9d 10fc 9874 b83f
000003a0: f9a0 fd39 87bf 763f fec0 aca5 9b3b c6bf
000003b0: 1c81 75e0 73af b0bf 09e7 fb3f 9e14 c0bf
000003c0: 3bbb cbe1 d801 743f e2be ba02 81fc a53f
000003d0: e8f7 1a0d 23f0 993f d036 0669 9576 c4bf
000003e0: 362a a86a 02a5 a7bf 5ef6 75ef 1646 c03f
000003f0: 0a57 c8f8 a5d6 b6bf 51c3 7823 3a4b ccbf
00000400: 11d4 7e63 b2c3 b8bf 200c bc97 4219 c93f
00000410: df20 be1b 766e 85bf 4ce4 f198 5f4b c5bf
00000420: 4769 581e ad0b b93f 3a0b 24ef 0296 98bf
00000430: 29e7 e119 49f5 af3f d8bd 2574 01ef c1bf
00000440: 1dfe f2fb 920f 97bf d632 a50e 90de b13f
00000450: 85bd e56c 2f90 83bf 99d5 6d92 2d28 b7bf
00000460: 52ed 61f1 e64d 96bf 98d2 fc99 cfc1 c93f
00000470: 11d6 f947 4a2e babf 8243 a1b4 0723 ba3f
00000480: 638a 2fe9 d947 c03f 7afd 5cfa 55cd c73f
00000490: 8b2d 0fa5 cd9a a33f afc8 7f99 ff29 c23f
000004a0: ad3b 8a91 7c8e c5bf d9eb 9ee9 13c9 993f
000004b0: 105b 71c4 c718 87bf c2a8 7f3c 3a2b c23f
000004c0: 5a95 c0cd 9792 a8bf 6344 572d 87f0 713f
000004d0: 8043 6533 874e a83f 6b7b cae2 147d afbf
000004e0: a579 9189 bad8 a4bf 6dc9 303d c41d a23f
000004f0: 7dbb 383e 3ed5 c13f bef4 0620 0a1c a4bf
00000500: 8364 7489 85bf a2bf 6fae 2e6f 6cc3 b3bf
00000510: 1e19 f5e8 d21e 88bf 2762 0b3b 19ec aabf
00000520: a9d8 d9ff de6e aebf aac0 59e0 59c6 c03f
00000530: e28d cd82 94d2 a6bf 3277 3efd b783 bc3f
00000540: 23bf 6ad7 c13f a63f 3cd8 37b0 730b c53f
00000550: f8ad ec2a d88a 87bf 27ed 3082 bfe4 c6bf
00000560: c1ae 42d1 4834 8abf 0446 a579 48e4 c73f
00000570: 4984 9b55 d53f c0bf c70b 6f43 ddc9 b83f
00000580: 746a 9c80 e6b1 ac3f 3cdd 9481 a3e7 633f
00000590: 5b70 766c 889b 9c3f 5bd1 16d2 28f3 cb3f
000005a0: 5ca8 8020 1684 c0bf 7d1c cb54 a082 b53f
000005b0: 92cd 7d07 a561 96bf ea4f e8b1 e520 a33f
000005c0: d02a 6df6 b000 97bf d8ac af1d 3040 b1bf
000005d0: 65e4 0dd4 cd25 943f 83a0 2434 671d c4bf
000005e0: 85eb 7a17 5d0e b33f ae47 3b84 d862 91bf
000005f0: 16d9 ea78 6df9 a73f b7af c9fa 8707 8a3f
00000600: f40a c3ad ed89 c23f 852b 81af 5347 74bf
00000610: a85c c172 7e76 c23f b012 33c5 c7a4 abbf
00000620: 667a bfc8 c51f 9ebf 27c5 ef18 17d2 bfbf
00000630: 4d42 1fdd b867 49bf e54d 6817 920e c6bf
00000640: bd1e 22e9 8918 b53f 7d5a 93c0 bc42 c63f
00000650: b6ad 17e4 e3c1 923f 2201 6432 6b3d 993f
00000660: 511f f23f 36ce c23f 3056 768b 9e58 b8bf
00000670: 1a88 4966 28bd a73f acbe 17cb 336e 9dbf
00000680: 54e9 b412 a4c2 72bf e6ea cb74 828b a8bf
00000690: ef98 b529 ef7d b73f 3b6f ab7b cc92 b83f
000006a0: 2a3d de49 b0d6 ba3f 6263 feb6 5eac c03f
000006b0: 0cac a558 8974 ad3f 3702 d70d 15fe a53f
000006c0: 5f5a 22f2 14b8 cd3f c498 6cb6 ba5f c63f
000006d0: ca5e 30ab 9549 a53f fdb3 5a93 59b2 873f
000006e0: f49b 341f ec5f be3f 0189 24de 4a06 c33f
000006f0: 5255 2afc f183 883f 0cf8 4419 d9ce af3f
00000700: e925 a0ed 7e86 a83f 16d8 7c9d 6ebe a2bf
00000710: 6b0e d9a7 eb8a c33f 90fa b275 7425 bc3f
00000720: 76ed 98bb 49ac 833f 8ff0 e133 e81a a53f
00000730: a8eb 8f48 1516 83bf 90cb 7ea7 b638 70bf
00000740: f931 f909 2fe3 bbbf d782 e649 7159 a73f
00000750: fdae 600f 422a a0bf 0545 6fce c0f5 bf3f
00000760: 9a91 831f e265 b73f 6426 63c0 8666 b03f
00000770: db69 32d8 2f3b b23f 77db 78a6 6aa2 c03f
00000780: 11b5 58cb e575 bf3f 4b7f d242 ddcb bdbf
00000790: b97c 61c3 fcba b03f 1ea2 dccd 1cdc b33f
000007a0: ecff 3a53 8743 ab3f bda6 034b c98c b63f
000007b0: 1fe2 da0b f3fb a3bf 1aa8 db21 7232 b9bf
000007c0: 2287 4186 1815 c9bf cd27 bde7 64d9 b9bf
000007d0: f8cb ebec 14f1 b6bf ca24 d9ba 6867 c2bf
000007e0: 44f1 0cd0 b6e8 b4bf 8523 d6bb 77ef c0bf
000007f0: 649a 1bc2 2447 a2bf 76c1 5137 c86b b33f
-0.008872417038685092 -0.0910724826486625 0.11860107144255097 -0.1008263135720605 0.03604185030036146 0.11673777133533259 -0.11906863561965107 -0.07912953954118006
0.15313548392616688 -0.018462068754529357 0.1587518367340048 0.059676471923786986 -0.06494976293277444 0.1650115505947477 0.06457561312024569 0.11508629848678865
0.023507305817022445 -0.029971950988192202 -0.04844104754415829 0.029656055894177358 -0.09005451849537281 0.02214160279933368 0.10450763916728552 0.04629147866551025
-0.1183928761186129 -0.0953679367133183 0.03458793436479821 -0.3051595601554102 -0.12835167845207818 0.009808087841661817 0.016722435998069 -0.1355367835479538
0.0752606658739197 0.1374291718562265 0.07329610453870128 -0.011860648724478466 0.018505335695952307 -0.07927563585012125 0.1599303986446473 -0.12402390518975959
0.11452685806559036 -0.15733752267517426 -0.10523666749866215 -0.14500233262049889 0.13210511872484484 0.11731260681241412 0.06255311889123782 0.10826136722522095
-0.0410019451180678 0.29279679380647605 0.0546670692182963 0.2212732419348601 -0.08176738139319183 -0.017827119833717202 0.08338060425950052 0.028817480917869148
0.020920563655758558 0.010345508057352168 0.06768059861021981 -0.08537369054229853 0.13728622285986325 -0.18548715716827913 0.0049194156021256374 -0.015210551521647683
-0.00393205547494784 0.012603131843904589 -0.003085799727629196 -0.15775786991139873 0.026314872554634803 -0.10621121546557752 -0.013799113777507806 -0.10845693651509966
-0.05119468489341017 0.11763677774064134 -0.035798318139861146 -0.11322672377889724 0.006401653558594859 0.08233325091607142 0.10379924886387835 0.16352376976805827
-0.06594046556172702 -0.011462790043885314 -0.0932033281659479 -0.006656101124205295 0.13145107151797125 -0.13190039926034533 0.14183936435912453 0.2527931225050054
0.13187232932078038 0.10804003200251869 0.11714775918421043 -0.11565513343951396 -0.005122547820904683 0.1757346765194789 -0.005418485834237563 0.0916256319665664
0.02851227127515717 -0.17399278952977332 0.11749629560353853 -0.09200258980360362 0.08921761740644393 0.06724689997758732 0.11509659769687035 -0.13091284177294604
-0.10407313229379722 -0.0017810602657731165 -0.023341168181776593 -0.06085177793993309 0.1479772402503421 0.14411092943781267 -0.04236052913716543 0.15511363082602558
-0.2212290351414365 -0.0787629499354393 0.07168678154804976 0.09552913812568856 0.005553749302500182 -0.17369409169760525 -0.06517719488102042 -0.12562921642511807
0.004884574122782588 0.04294207723921574 0.025330112147223277 -0.15986888530863164 -0.046180797118797676 0.1271389645807401 -0.08921277354997073 -0.22104574901598054
-0.09673609665954098 0.1960833779231459 -0.010464594575538331 -0.1663627144623966 0.0978344153485625 -0.02400974831199252 0.062418255242802374 -0.1401063744665254
-0.022520348193891693 0.0698022876505989 -0.009552355299745194 -0.09045681786468264 -0.02178154800684002 0.20122714060712066 -0.10226883179878878 0.10209701690588527
0.12719272504826326 0.18595385288970673 0.03829043044933219 0.141906690550575 -0.16841084581798552 0.025181113370972816 -0.01127773349996411 0.14194419817005693
-0.04799341570496081 0.00437977603492454 0.04747412207019064 -0.061501171764794936 -0.04071600846576765 0.03538335082011455 0.13932016409077255 -0.03927642479855241
-0.03661744406617464 -0.07720067705548116 -0.011777541860862824 -0.052582539041115255 -0.059439629298979675 0.1310531945669074 -0.04457534882274296 0.11138486798014638
0.043455178781526514 0.16441198448564076 -0.011495293436005291 -0.1788558374117681 -0.012795037160990732 0.18665414752699416 -0.12694803886464204 0.09683020492870674
0.0560447723384713 0.0024297898750337537 0.027937060947451502 0.2183581376863327 -0.12903095805205822 0.08402444906379176 -0.02185685976242053 0.03736036106798209
-0.022463574448276458 -0.06738568043481352 0.01967546088005569 -0.1571473126034598 0.074437921745739 -0.016978629179739073 0.04682485676805663 0.012709677067696974
0.144834241718932 -0.004950835129487245 0.14424114802634347 -0.05399154932232386 -0.02941807782905883 -0.12429947241595994 -0.0007753040938443617 -0.1723196615499624
0.08240568105440622 0.1739116611776871 0.018317757412587198 0.024648356390572286 0.1469180881724648 -0.09510222344246055 0.046365034567102906 -0.028740700979993747
-0.004580155287209859 -0.04793937373866246 0.09176535385413208 0.09598997134474711 0.10483838847561758 0.13026031432380153 0.057529728003679365 0.04295411867088144
0.2321802313133103 0.17479642779762206 0.0415770312758333 0.011570644196888575 0.11865115892270223 0.14862953039943963 0.011970415599800308 0.062125000319142115
0.04790112162306654 -0.03660913155037819 0.15267701812455256 0.10994651673807199 0.009605957067029474 0.04122090943653333 -0.009319463993952073 -0.003960336201930384
-0.10893529885760946 0.04560426737885386 -0.0315724033137865 0.12484364547642109 0.09139836568244278 0.06406442830043485 0.07121562031026178 0.1299565613605542
0.12289272512926554 -0.11639197236445147 0.065353200626748 0.07757740045475045 0.053249577436417755 0.08808572846796899 -0.039031596371789094 -0.09842599226581719
-0.1959562926813812 -0.10097342164695462 -0.08961611541944581 -0.14378079532096982 -0.08167593554839409 -0.13230797454550838 -0.03569903249244957 0.07586337423868436

cnn3.bias f8 [8]
00000000: 0a36 bb96 04ff abbf 2de0 8d65 77af 9a3f
00000010: fb73 068e 0c8a b13f b177 026d 5fb2 9b3f
00000020: 5c74 3ac2 ed4a b73f 26c7 9d15 47d9 b73f
00000030: fbf5 94ed 489c b3bf 520b 7f8c bccb 833f
-0.05468000736219032 0.02605997617089899 0.06851271121418272 0.02704762556879076 0.09098707191374572 0.09315914418928326 -0.07660346794451549 0.009665940320592679

fc1.weight f8 [64, 72]
00000000: 960f 50c4 14bb a4bf b98e 4d0b b0e9 5dbf
00000010: 488e 1d5b b99c a23f 013b f689 8bbb ac3f
00000020: 4027 c5a2 b8c4 763f 2545 5a35 e77b 9f3f
00000030: f7e1 9f87 778d 8dbf 7624 987f 239c 97bf
00000040: e228 e0ad e807 c0bf db4d 545c 0686 9abf
00000050: af5a b253 44a9 b53f e14d bdbe 9359 bd3f
00000060: bfef d724 13b9 a13f 6d54 53d4 b07b a5bf
00000070: 248c e266 1d84 a63f 0c44 5a0f 2bd1 9e3f
00000080: 04d4 eded d80f 803f a221 9ac9 cd5a b4bf
00000090: 907d c151 6d39 c13f 8323 f65d 0523 b33f
000000a0: 17bc 8b19 5066 ae3f 33c6 14b6 25e7 933f
000000b0: b3e8 7be0 6b59 9e3f 22fd d937 25c7 3cbf
000000c0: 829b be9f dcf5 993f 5aab e825 afae bb3f
000000d0: 9e8d 2aba 5f5e 84bf e5dc aa74 c65c bd3f
000000e0: 1af2 1e5e 464a aa3f 843a 2114 ff2f b23f
000000f0: 5864 1cb0 3847 933f 993f 54cd 5769 96bf
00000100: 2aa5 fb8f dd07 b8bf fe5d 94f7 81fb a4bf
00000110: 054c 8485 2a6c ad3f 84fb bef0 4504 afbf
00000120: 27fa 2b6c cd76 c3bf 2fee 21e5 3069 6c3f
00000130: 3350 83cb 590f 983f c7bd e9fc 3158 71bf
00000140: cb87 95e3 f9d2 aebf 5fd5 3ed2 7423 9abf
00000150: ac3e 200c 157b bdbf 8a84 5e76 c23c a73f
00000160: b337 5acb b1c7 b03f 3b91 8048 9351 933f
00000170: ff86 68cc f3ad a33f eb3a 8efb d509 a33f
00000180: 9eeb a3ac a224 a7bf 1370 ea77 874d b23f
00000190: 2062 d450 82ce a4bf fe3c 141d 6b73 af3f
000001a0: 48f1 6cde 8278 aa3f b066 389a 4e93 bb3f
000001b0: 7e5b 1bc7 b48d 843f b551 8df2 7b37 b83f
000001c0: d49c d0ee 8026 bcbf c036 f4ff dbc7 5ebf
000001d0: d038 8690 8a3f 98bf 223f b343 c6e8 8b3f
000001e0: 3eba 324c 4030 b73f 7091 e2fa 029e aabf
000001f0: 2733 d2ef 441d a4bf 7810 3dca 3a3d acbf
00000200: 472a c0e3 d69a a53f 3e9a 5632 e313 b53f
00000210: c39e cb32 c1f9 bfbf 3e8b 733e 5fb2 afbf
00000220: b02f 41d9 fc69 a1bf 0f21 779e 265b adbf
00000230: fe0a 08d7 f76e 853f 1a0e 731d 8ead b1bf
00000240: 4a32 d1ef 0a12 b4bf 7d2f 6381 d98f bdbf
00000250: eb55 57dd fa74 91bf 90c0 34c8 1a32 99bf
00000260: de13 118d 54c4 a4bf 4eda 8b4e 5659 91bf
00000270: 7524 8362 079d b4bf 308a 9797 9e1a 99bf
00000280: 3f10 c254 622e b6bf bb5a f5e8 376a b43f
00000290: 72ea fa07 7db7 693f ae43 9302 74fd c2bf
000002a0: 2485 98cc f9c4 bdbf 5240 9a9d a314 7fbf
000002b0: 2a9c 3bbc 3ef4 a5bf 3be5 3f95 fc87 b03f
000002c0: 89e9 2ab4 2293 9ebf 94b5 ca2c 415f c03f
000002d0: d63a 8f28 acd0 b6bf a92d b5b0 3a76 b6bf
000002e0: 34d5 e8f1 3a16 b5bf bd34 68f8 ca5c b0bf
000002f0: 3cc2 92a2 e39b ac3f 0d8f 8997 38ee 9e3f
00000300: 2eac c76f bcef c13f b4e0 2441 67f5 ae3f
00000310: ed55 4697 f74a 80bf 3d1a 7fba 291c babf
00000320: 3c02 7d0a d9be afbf 5863 67d7 0c44 b6bf
00000330: 7751 0628 81a5 a4bf 6127 9cf4 0bc4 b43f
00000340: 588f 16d2 374a 823f e3a2 292c 1e8d abbf
00000350: b885 ddb8 0457 b3bf cf1d e6ea c2b4 90bf
00000360: d792 d01a 5ae0 a93f 6fe4 1c85 36f6 ae3f
00000370: 4e91 0edc d973 a6bf 677d 7bd7 17a7 a3bf
00000380: 4026 64f6 4f6a a43f 0287 f966 433e 9b3f
00000390: a054 bf1c 78fc b3bf b6ff 71a1 2591 ac3f
000003a0: c049 9229 5840 a3bf a4af 19b4 99dd b63f
000003b0: 98d7 387a 429d b33f e9fc d296 728e adbf
000003c0: 6a00 c18e aaf9 b13f 6e9a c533 fdfd b13f
000003d0: f977 7bed b3bf b3bf b4ec 5fc0 2013 b03f
000003e0: c25a adc1 3f92 813f 5576 a6ce cb8d b83f
000003f0: db19 ba80 1989 a53f 2a55 42bc be23 983f
00000400: 7d45 d5fb fbec b03f 8067 2c07 49f7 aa3f
00000410: 963f 5ea9 0011 933f 3d62 090f a41c b2bf
00000420: 7be0 1478 554b a03f d1f7 fdcb 112a 8dbf
00000430: 9d58 ca6d 5756 a4bf 849d 5b83 c7a1 bc3f
00000440: feef 3ae4 ccf1 90bf eaa8 3d95 0298 98bf
00000450: b077 2f26 d2a9 943f fa7d c2b4 a55d bfbf
00000460: dce6 4ac2 acc2 b63f 9e34 5a7f ddc5 9abf
00000470: c4da 2ba5 8153 ab3f c04a bd4b 8e21 903f
00000480: 0343 e922 b614 b43f ac9b b59a f579 7d3f
00000490: b660 c532 6b61 a0bf c938 47a0 4ad2 bcbf
000004a0: c2a2 4bf5 b3c8 a6bf 90ea acf8 979a 723f
000004b0: 02c7 1fb4 64c1 a33f 84c4 1a9b 478f a33f
000004c0: c8ce aeaf 3ddb a43f 2536 5e9d 8ace c43f
000004d0: d9ab 352b 44dd b93f c1e7 4163 ee7f 9b3f
000004e0: 7b42 5d8b 3c7e afbf 5969 db35 b218 9b3f
000004f0: 3852 b7a7 e514 b9bf e994 77e7 291a 7a3f
00000500: 3642 c475 83da a43f 65e1 218a 0187 ac3f
00000510: bf55 095c 42c9 bdbf b0fa 374d 5e15 b1bf
00000520: 9af8 6e36 7f42 b6bf 267c f12a 5cc9 b1bf
00000530: f0d4 16b7 c232 afbf e515 6723 ccfb 303f
00000540: 0d10 7c43 8452 6d3f fa78 d6eb 1c43 b2bf
00000550: a940 7fff 98a6 42bf d85f d827 f296 c0bf
00000560: 6897 aaa1 7638 a4bf 93da 6416 d9c6 acbf
00000570: 901d 0409 03d5 a7bf e63b 34c4 6598 a0bf
00000580: 2cd5 2219 0a6b 833f 203e a840 36e0 96bf
00000590: 00ab 9b5d 8329 91bf 3c0d 7034 9dfb b03f
000005a0: 18c1 13d4 e8e9 a93f 1242 3761 0ecc 84bf
000005b0: fafc ea5a e8a2 b13f f8d2 f618 450f b3bf
000005c0: d857 52e6 89b9 9d3f 4a4d 51d6 cf7a bcbf
000005d0: 4d60 6656 13fa bbbf 3018 7f5a 6937 b6bf
000005e0: fc06 4abc 7efb bcbf 37d9 1650 16db 593f
000005f0: 68f2 edab 934d b7bf 8633 ffc1 7c9e bdbf
00000600: fb2c 36e0 4fa3 94bf e78b e4ad 022c 9b3f
00000610: ac2b 8d0e 3320 bcbf aff8 ebc2 55f4 ae3f
00000620: 2449 d58c 1061 a0bf 54f2 d384 c285 67bf
00000630: a804 77ad cb2f b9bf 5795 47dc e352 a4bf
00000640: 6385 db2c 0f78 a53f 3311 dfd7 e65b b03f
00000650: 2ba2 3049 66b1 b13f b469 3082 2f4e 99bf
00000660: 8873 9a76 3e3c a7bf 43b0 a47c 22d8 abbf
00000670: 0881 4e9e 75c2 b03f cfe8 990c 72cd c13f
00000680: 90ad edeb 5bab b83f f554 1a4f e6cc 8f3f
00000690: e8aa 3587 a2d3 92bf 1197 f1d6 7110 c03f
000006a0: dabd c706 3df6 62bf 256a dc06 1dc1 a8bf
000006b0: abe1 a70e 3572 91bf b0fd af79 b172 83bf
000006c0: ef64 2c74 aa90 9abf 57e8 2318 e737 7e3f
000006d0: f32b 29ce d1de c3bf e0e7 7bfc 48d4 9bbf
000006e0: b365 6f37 cb78 b13f dd96 c4d5 f9ab aa3f
000006f0: 48ec 9324 ba9d b23f 3621 b40c 54c8 b5bf
00000700: a20c f845 b9ea 6c3f d5cc b4b0 be7b b13f
00000710: 6f1c 7ae8 7749 8dbf 025b e0f0 337c 903f
00000720: 897e ea41 d9d2 8cbf b38a a531 e1c9 95bf
00000730: dffb ee95 0c14 99bf a9f5 2556 9b6a 6dbf
00000740: 939e 509e cc63 933f 062a bfe0 f408 acbf
00000750: 8b33 3be4 27f5 4f3f 9dd5 95e3 8902 b73f
00000760: 52a2 836c df5b 933f e67e afe5 85aa b2bf
00000770: ddd4 f0bf 0440 ab3f 5079 c739 3138 40bf
00000780: c0fb c7f0 d69d 85bf 943c e5a4 d969 b63f
00000790: b9a6 c455 b602 afbf 317a 957f a53b c73f
000007a0: 1232 79b3 5542 823f 1697 ece7 693a bb3f
000007b0: 8288 dbe5 7b21 a1bf 6db3 3e38 4a84 8abf
000007c0: d382 b95c ab65 a1bf c87e cc5f eac6 b1bf
000007d0: 5997 d17d 77ff 933f 6323 018f e5f9 79bf
000007e0: 965e e990 9a26 9fbf a2d9 9fcb 7952 983f
000007f0: 9842 d3e7 2840 a3bf 6bbe bb70 12eb 9abf
-0.040489815677602056 -0.0018257350140737218 0.036351959583751425 0.05611835536102739 0.005558701738047678 0.030746090537438726 -0.014429982973511264 -0.023056559241045403
-0.1252413605691976 -0.025901889214834255 0.08461405795456288 0.11464808851933796 0.03461513352155476 -0.04195931045402621 0.04397670632285891 0.030094788372085943
0.007842726479546876 -0.079510556906945 0.13456503383620744 0.0747531275175231 0.05937433540190556 0.019436444509841343 0.029637990547578052 -0.0004391160835907783
0.025351950883897974 0.10813421893605604 -0.009945628994791286 0.11469688747716907 0.05134792231499237 0.07104486695718931 0.018826375721890137 -0.021886226565640852
-0.09387001767358485 -0.040981351348985826 0.057465866850314774 -0.06057947696489577 -0.15206306249452092 0.003468127725737145 0.023496058508342976 -0.004234500184437668
-0.06020337012411366 -0.025525880176890833 -0.11515933557552199 0.045385434102407876 0.06554709639223581 0.018865872669395527 0.03843652601450564 0.03718441673037439
-0.04520138127732952 0.0714955013049237 -0.04063803898515439 0.06142744760483686 0.05170067753940316 0.10771647706169563 0.010035908056506445 0.09459662124328967
-0.1099625189823315 -0.0018787048755401353 -0.02367989070040083 0.013627575818105312 0.09058000431353094 -0.05198678314744398 -0.03928580691817834 -0.05515464514476859
0.04219695596846811 0.08233470896684822 -0.12490470399972779 -0.061907745717482573 -0.034011746902791073 -0.05733605083838899 0.01046556115125474 -0.06905449122410126
-0.07840031008635964 -0.11547622116921548 -0.017047805556861844 -0.024605196446998934 -0.04056038114553194 -0.01694235662849968 -0.08052107005200233 -0.024515607836187836
-0.08664526528633675 0.07974576413594552 0.003139251901157985 -0.1483597767424078 -0.11628686184896658 -0.007588042377065634 -0.04287906692280104 0.06457499164379936
-0.029858152624663545 0.1279069393835185 -0.08912158956739388 -0.08774153532174601 -0.08237045675271731 -0.06391590656876907 0.055876840205546036 0.03020561623487965
0.14012866456991574 0.06046602888312816 -0.007955488494910202 -0.10199223330628455 -0.062002928285896236 -0.08697586306460658 -0.04032519925673033 0.08111643526004066
0.00893062219513012 -0.05381101883978603 -0.07554654610932843 -0.01631455000599918 0.05053979470566155 0.060472205876472944 -0.04385262309304726 -0.03838419442558454
0.03987359888749298 0.026604703102186107 -0.0780711240943952 0.05579488368766709 -0.03760028369392243 0.08931885382634036 0.07661834224640385 -0.057727414046434174
0.07021585450365966 0.0702818156620226 -0.07714390323550892 0.06279186913154683 0.008579729173715637 0.09591363711521102 0.04206161209463107 0.02357385658304626
0.06611609361904942 0.05266788685385304 0.01861954721203992 -0.07074952475648728 0.03182475176657903 -0.014240397489398678 -0.03972123351302168 0.11184355694751075
-0.016547395162646687 -0.024017372473658684 0.020179065304425314 -0.12252269423560583 0.08890800231429402 -0.026145420930835266 0.053371478474152606 0.015753005383269736
0.07844103195499134 0.0071963876647264495 -0.031993246028549846 -0.11258379376451723 -0.04449999207810641 0.004541963232265758 0.038584849345978625 0.03820251243940567
0.040735175796184075 0.16255314525589984 0.10103250555918865 0.02685520630664207 -0.06150998307442009 0.026461395775961936 -0.09797511429435068 0.006372607887418649
0.04072962582188604 0.055717514144762594 -0.11635222193702698 -0.06673230538579378 -0.08695216254179386 -0.06947876022739816 -0.0609341476914923 0.00025914892048847635
0.003579386069647589 -0.07133656270750413 -0.0005691763935775823 -0.12960650392119422 -0.03949328158823456 -0.05620458982814571 -0.04654702649173281 -0.0324127008444675
0.009481505291072688 -0.022339675613748722 -0.016759922588714282 0.06633932619302113 0.050612712753606626 -0.010154831258575778 0.06889202327419133 -0.07445175036884766
0.029028086359708855 -0.1112489603267949 -0.10928459987042168 -0.0867830129564886 -0.11321251007941763 0.001578113355532885 -0.09102747867104599 -0.11569957481624557
-0.020154235896865363 0.026535074103900682 -0.10986632447490646 0.06045787815490777 -0.03199054450182562 -0.002871398849150256 -0.09838555321677467 -0.03969490112266765
0.04193160460068659 0.06390230913445265 0.06911315237869846 -0.0247123168192986 -0.04538150022310733 -0.05438335200810276 0.06546721568020442 0.13908219924252882
0.09636473188373018 0.015527533806827235 -0.0183854479813971 0.12550185199068456 -0.0023146812366048155 -0.04834833821060539 -0.017037228602903614 -0.009496103788477622
-0.02594248136583571 0.007377531730748363 -0.15523741308638214 -0.027176990900421916 0.06824941733739003 0.0520933221289803 0.07271922486317905 -0.08508801756045589
0.003529893743463201 0.06829444707982486 -0.014300286085257434 0.01609879644100954 -0.01407403690728805 -0.02127792230147447 -0.024490543986526944 -0.003590873138078894
0.01893539158132158 -0.05475583308687608 0.0009752697737553812 0.08988248640328896 0.018905154226475603 -0.07291447503620993 0.053222797804133505 -0.000494979892717665
-0.010554961417254094 0.08755264545219382 -0.060567567796466056 0.181507766053032 0.008915586032480358 0.10636007225238261 -0.03345858746412579 -0.012947635499438193
-0.033978800839354804 -0.06944146002615093 0.01952921586452958 -0.0063418357022520825 -0.03042069920988285 0.023752120068786582 -0.037598875330904835 -0.02628735364026939

fc1.bias f8 [64]
00000000: 86ad 30e4 1819 8e3f 02a9 08e6 22b6 57bf
00000010: acdd 840d 56c1 65bf 5511 bcbd 0f9c 793f
00000020: 8e82 7a23 5bd3 81bf 5139 7720 ffa5 7c3f
00000030: d7e9 ea3a 941b 723f 4159 908d 9e0d 97bf
00000040: ee76 699f 7b3d 603f 9b83 68ed 3486 493f
00000050: e87c 3cdf 1e30 8e3f 403e 2a20 2e19 863f
00000060: a6e5 3142 ec10 783f 093f 958b f143 77bf
00000070: 7ccf 2215 8494 743f d187 58bf 0ef8 75bf
00000080: 1fff 0748 5776 82bf b023 6a04 cf9f 993f
00000090: 86da bba9 70bf 89bf d7dc b97d d08f 60bf
000000a0: 2235 eb1e 310a 78bf 3b8d 0ae1 cc05 3b3f
000000b0: 3a3a 5b30 119b 96bf e66c f5cf 71ae 913f
000000c0: d46f affc ff9c 713f 828c bead d007 92bf
000000d0: 0376 36c2 828f 7abf 029b feb0 5164 963f
000000e0: f8ed d025 11e5 85bf 52fa 6532 cf8c 833f
000000f0: 93de b5c6 607c 813f ecf0 1fc7 0eee 90bf
00000100: f6e7 f0f1 9bfa 553f a57a 6083 9e92 6a3f
00000110: ceb5 b9f6 75ae 673f e7a4 17f7 75c0 8b3f
00000120: 8caf e253 b8e9 733f 54a0 8001 3726 71bf
00000130: 0a72 85c6 5e4c 733f e3ef 0940 76bd 8f3f
00000140: 4f59 25a5 c124 5e3f 2bbf 822b 2c84 503f
00000150: c668 82a9 b5fe d031 c94c d306 4fda 7bbf
00000160: e20f 85c9 f4c3 923f aca3 c454 3fce 8ebf
00000170: 9fd7 3fbc 37fc 7cbf f066 8636 00af 7ebf
00000180: 25bd 6c1e 1832 803f 6daa c3fb a232 433f
00000190: 209c 983b 5df9 70bf 57e3 ebb2 2d86 72bf
000001a0: 5610 5f7f 38f6 813f 0097 f723 a1c7 523f
000001b0: 3093 3cc3 271c 74bf a2e6 f114 2fe5 82bf
000001c0: 57cd 74c9 2575 993f cb16 fbf5 fc82 863f
000001d0: 7cbb 1375 f5a8 863f b53e 3acc 6781 66bf
000001e0: 063d 3e2a 7cfc 8f3f 1d64 be94 7ea6 81bf
000001f0: a3d5 76c8 27b5 71bf e142 5463 448a 6e3f
0.014696306670962011 -0.0014472332769722156 -0.002655666419879762 0.006252347458716241 -0.008703910846919596 0.00699424418367152 0.004420832656871507 -0.022512891188023024
0.00198244233187849 0.0007789381441548506 0.01474022024882378 0.010790214878652837 0.005875513920835662 -0.005680030380361031 0.005024448344716489 -0.005363519293981115
-0.009014779935568705 0.02502368416256545 -0.012572174243797873 -0.002021701058591323 -0.005869094732316145 0.00041233303003647734 -0.022075909210622614 0.017267015760222736
0.0043001174444405495 -0.017607937435638828 -0.006484518791152197 0.02186706202305811 -0.010690816847378479 0.009545916295562371 0.008538013519440646 -0.01653311815606255
0.00134148816120083 0.0032437416039237826 0.0028908065776735775 0.013550683596763992 0.004861564664832129 -0.004186835161853326 0.004711504189199642 0.015498088673886861
0.0018398181024018195 0.001008074888925801 9.849657515896113e-69 -0.0067999922732326435 0.018325638580122823 -0.015041823172014045 -0.007076471058089866 -0.007491112548814391
0.00790804713105204 0.0005858703439377118 -0.004144062224020778 -0.004522493850111462 0.008770409953179275 0.0011462281835234456 -0.004909663508247772 -0.009226196123779676
0.024860945149339866 0.01099202752756003 0.01106445086995022 -0.0027472522068093482 0.015618295706899332 -0.008618344225213953 -0.004323153879729177 0.0037280402854168314
