src/checkpoint/modelSiamese.pth (torch_old, 58673 bytes, 10 tensors)

cnn1.weight f8 [8, 1, 4, 4]
0	0xbfa1924cfaf55b83	-0.03431931079347008
1	0xbfa02d2c28ddf4a0	-0.03159463881363789
2	0xbfc63b9229ddd9d0	-0.1736929611613065
3	0xbfc893439e676117	-0.19199414476930407
4	0xbf43e281061d1d98	-0.0006068353652403545
5	0x3fcc9d3bcc66018e	0.22354838829415907
6	0x3fc0762c47524560	0.1286063526390917
7	0x3fb72f5c4c35a4e9	0.09056641445717485
8	0x3faa7258b177d595	0.05165364424093891
9	0x3fc0d322dac23ed6	0.13144336396771078
10	0x3fc5acee6c4abc8b	0.169339945675777
11	0xbf89c9b2ead96aff	-0.012591741363555451
12	0xbfd00bfcb4e02c5f	-0.25073163665428483
13	0xbf9358de3e52ae29	-0.018893692544834337
14	0xbfbf6e1e4eae1eab	-0.1227740232553695
15	0x3f82beeba5169fff	0.00915321443137884
16	0x3fc8e894f58bc608	0.19459783544111553
17	0x3fae4b195949d7e0	0.05916671004244711
18	0x3faec7ee4d6b0124	0.060119101477086795
19	0x3fc07d135f3a5ec1	0.1288170065861234
20	0x3f9145b20b995c80	0.01686742969317523
21	0x3fb3572308354fe8	0.07554835272213689
22	0x3fac7c0dc153c95c	0.05563395485832487
23	0x3fb867844e8093d6	0.0953295413642786
24	0x3fa7470ace23bdf2	0.04546388403275249
25	0xbfa0f6ff1a61ea09	-0.03313443371822095
26	0x3fbc4d91f8dff320	0.11055862737698563
27	0xbfba0a166081a039	-0.10171642166244589
28	0xbfcbbefaa6171b71	-0.21676571950794313
29	0xbf8b81ead6b3ece3	-0.013431391408167353
30	0xbfb0d673d8c3fef5	-0.06577228586320046
31	0xbf8a7227ec1157df	-0.012913047687259592
32	0xbfaf23bdc444961f	-0.06081955929611759
33	0x3fb5d3594196ac8a	0.08525617457660153
34	0xbfaf1121b1a99543	-0.06067757886629945
35	0x3fc1199483a10cd5	0.13359314372255562
36	0x3f9614c9d1c6a4db	0.021563676289280003
37	0x3fa65fbfaab135a6	0.04369925459523509
38	0x3fb70c69011aaab5	0.0900331142135354
39	0x3fb84ef6ca63c87d	0.09495489541203202
40	0x3f91028c901165aa	0.01661128644295721
41	0x3f7b4142744f841d	0.006654033267268236
42	0x3fc2979c518cfdbc	0.1452517889210706
43	0xbfc688fe9fb2e9ab	-0.176055744150131
44	0x3fc109ef46432548	0.13311568194175494
45	0xbfa79dc0286ca4c5	-0.046125416693322964
46	0xbfb5db98c56014cc	-0.08538203066571554
47	0xbfae26bd4361ba7a	-0.05888930747538708
48	0x3fa18125bc4917e3	0.034188441499779086
49	0x3fbf7d9b12ca66b8	0.12301034172778713
50	0xbf933c1d01f056c6	-0.018784001582466535
51	0x3fb075be6b015180	0.06429662811689774
52	0x3fa85bd02a168873	0.04757547868509073
53	0xbfc18d182cb2d236	-0.1371183603529446
54	0xbfb0aa283e66b7f6	-0.06509639285533794
55	0xbfc04e4f317ccb4d	-0.12738981167202681
56	0x3fc897264321041e	0.19211271550924008
57	0xbfbd207447140d0c	-0.11377646193800589
58	0xbf9c238de14549b1	-0.027479378580503148
59	0xbf82d761f7a7f0bd	-0.009199872370111323
60	0x3fc5a8be0860f28a	0.16921210679165127
61	0xbfc323d05d12a561	-0.14953045410701818
62	0xbfab46a51348eadf	-0.05327335224543161
63	0xbfc4194a112e073a	-0.1570217689405185
64	0x3fbf363aeeeb204a	0.12192123730631113
65	0x3fb825a4aa353c0c	0.09432438998668163
66	0xbfaed02544306b37	-0.060181774686688554
67	0xbfc0d9b61b974679	-0.13164402339184614
68	0x3fc5f01e07f240c3	0.17139029872897113
69	0x3fc366bb057ab954	0.15157258765743598
70	0x3fc062bf55ab4f16	0.12801353152337275
71	0x3f8b5408bd723d47	0.013343876153412494
72	0x3fa38da4900b3e72	0.03819002397869732
73	0x3fa34efb88c5cbdb	0.03771196407878793
74	0xbfbd13ddba1b3d5b	-0.11358438294995692
75	0xbfb19d4e20c2c4e7	-0.06880653667282709
76	0x3fc658a2e04d2d63	0.17457996322842026
77	0xbfa6db226e53dc2f	-0.04464061352512549
78	0x3fc7bfd1757543ac	0.18554132685906433
79	0x3fc474cd77694142	0.15981453257200867
80	0xbfa490aa2083ca39	-0.04016620299252733
81	0xbf9bd87682eec6e2	-0.02719292806768337
82	0x3fa8c3b3eefdfe9c	0.0483680943716511
83	0x3fb2fc5f47399331	0.07416339386834349
84	0xbfa44a0ddab084f7	-0.039627488084315425
85	0xbfb607086f489858	-0.086044814270822
86	0x3f99bfa500f8d3fc	0.02514512842590831
87	0xbfa6cf5ed3af938c	-0.04455086072974898
88	0xbfb22939669df2c2	-0.07094153170869347
89	0x3fc59f93461fc287	0.16893235134149995
90	0xbfb45f2202b73450	-0.07957661215114453
91	0x3fba6faf5753ed2b	0.10326667673136984
92	0x3f850083f42fe2a3	0.010254889382836757
93	0x3fc611bae1b78f21	0.17241607686366314
94	0x3f804d761d56f2f4	0.007960245867133044
95	0x3fc95c20ab4279f7	0.19812401163376567
96	0xbfc5191d0238bcf8	-0.16482889755705066
97	0x3fc1a2c3721accc7	0.1377796466018479
98	0xbfbd9750a35ece15	-0.1155901335576391
99	0xbfbd024d75a2ef1f	-0.11331638452514568
100	0xbfab340f10f22b47	-0.0531315525232317
101	0x3fa6b2edb5501ff1	0.04433386648457816
102	0x3fa94e0415dedcec	0.04942333952879516
103	0xbfba98cfd0c1ad39	-0.10389422270389027
104	0x3fc298545763e224	0.14527372614954104
105	0x3fa4da24c94be84e	0.04072680432541685
106	0x3fc4e7437ee1db88	0.16330760665342958
107	0xbfc3d2fe234d3b17	-0.154876487004423
108	0xbfbcddd17c0ef46a	-0.11275967863817163
109	0xbfbec8ce68f53c45	-0.12025156080675099
110	0x3fc9616c1b981809	0.1982855925309084
111	0x3f98cebc11db7e5f	0.024226130094460504
112	0x3f937f4afeb68ad3	0.0190402715649139
113	0x3fb8125b534acff8	0.09403010161878445
114	0x3f6253195e967689	0.0022368903634760223
115	0xbfa127cd3f34d24b	-0.03350678822099392
116	0xbfc96a49b22d3229	-0.19855614852930728
117	0xbfc13bdd5622beb7	-0.13463942247243718
118	0xbfcad27ce3d03865	-0.20954857944201702
119	0x3fc39717c716ab57	0.15304848881836605
120	0xbfc68d9c829e4449	-0.1761966359886478
121	0x3fae19416c48ec06	0.05878643462025228
122	0xbfc7e7cf622d47aa	-0.1867617825869819
123	0xbfaad0b16404a3f6	-0.05237345071720505
124	0x3fb98ab50ffa5660	0.09977275505146954
125	0xbfc649a64006d11f	-0.17412260175991265
126	0x3fb4ae1f22fc60c8	0.08078188518664142
127	0x3fd09275d9195533	0.2589392299754138

cnn1.bias f8 [8]
0	0xbf9d69c85730e192	-0.028723841020310177
1	0xbf4a520051834c45	-0.0008032323412642336
2	0xbf9d84f59e8f6908	-0.02882751255297314
3	0xbf66b153585171df	-0.00277010229414841
4	0xbf7320cd78b7b551	-0.004669954894308618
5	0x3f7788e6f8a2d5c7	0.005745794516930975
6	0xbf57840e64565dc7	-0.0014352932497326708
7	0x3f6f72cb5a886ff3	0.0038389178992144168

cnn2.weight f8 [8, 8, 4, 4]
0	0x3fac130e28549d29	0.054832880423698
1	0xbf94df8db55870dc	-0.020384039109658456
2	0x3f94c8a93a0b9666	0.020296711128045784
3	0xbfa008e386dbf6c1	-0.031317815983113124
4	0x3fac3118c9c43ebc	0.05506207907649016
5	0xbf9ec585eb2f1faa	-0.030050365905281907
6	0xbf9c6b8bd656e7ad	-0.02775400634502716
7	0xbfa672275e45ee59	-0.04383967424197683
8	0xbf95f2bc96af42cc	-0.02143377942758455
9	0x3f70cf758c18db2a	0.004104098481142052
10	0x3f970161e83ec4b4	0.022466211128350635
11	0x3faf53ec7d678d76	0.06118716269318274
12	0xbf9dc2a4af4a65de	-0.02906281776322383
13	0xbf97a4d25a6e63ca	-0.023089682359202425
14	0xbf83c11ffd8ff3a1	-0.009645700383765833
15	0x3fb18b7dca84bca4	0.06853471941279793
16	0x3fa6d3dca6e68906	0.04458512818679776
17	0xbf7ad4ad1c3ad1d1	-0.006550480091096892
18	0xbfa73e588ef6421b	-0.04539753670826859
19	0x3f9fc30d84d4c209	0.031017504913679193
20	0x3fa1b6b192ce3d06	0.03459696690617346
21	0x3f83fbaac40d83c4	0.009757360561424629
22	0xbf99925fc2ffd997	-0.02497243526155443
23	0x3fa6696243a39c9c	0.04377276492760382
24	0xbf942ed34afe3c8c	-0.01970987458440425
25	0xbfa86e917c5dcdb8	-0.047718569213340556
26	0x3f94cd4aed8cf13c	0.02031437945264368
27	0x3fb1b69c63c0183d	0.06919267115890278
28	0xbfa4a19790c935d5	-0.04029534952551798
29	0xbf9ede7d5facfbda	-0.03014560600717773
30	0x3f6b0ad756e3eeaf	0.003301067909999698
31	0xbf9474f57e703d32	-0.019977413026990472
32	0xbf8f72d3cc99a3b0	-0.015355734521294767
33	0xbfaf177be1c6149a	-0.06072604304339642
34	0x3fb008f6b540f5d1	0.06263677525654222
35	0x3fb1c75032d3ccda	0.06944752922918287
36	0xbf97434826273f50	-0.022717597321217753
37	0xbfa27a2bef230161	-0.036088345471855694
38	0xbf6f62333f17426c	-0.0038310051829529203
39	0x3fb302b988d79540	0.07426032629844759
40	0x3fa97dddf67f4110	0.04978841432569159
41	0x3fb183963433156c	0.06841410421755761
42	0xbfb29c15a04ddc14	-0.07269416011500623
43	0xbf74896ec33836f6	-0.005013878504099392
44	0xbfa6c18896bc200d	-0.044445293808223686
45	0xbfa25f0ac444172c	-0.035881363352059686
46	0xbf9235a4e6b7d584	-0.01778276117507495
47	0xbf977ad89ce0eb0a	-0.022929558348759684
48	0xbfae8f84f2ad2361	-0.059688715575765945
49	0xbf99933b3899d578	-0.024975705461164094
50	0x3f95ace233f43c27	0.02116731111624062
51	0x3fa8bb633d08f602	0.04830465431266974
52	0xbfaa2c8b2815a841	-0.051121090548648336
53	0x3fb27e726b9a4c89	0.07224192740459236
54	0x3fa42f64a40f1fdc	0.0394240808741981
55	0x3f8baa020915015b	0.013507858183061818
56	0xbf992c92a5850b41	-0.024584094383736547
57	0x3fb738844c396572	0.09070612774794087
58	0x3f9edd3307281dd6	0.030140683471499084
59	0xbf85c0844457fee8	-0.010621102653203221
60	0x3fb07eabed0d456f	0.06443285500906425
61	0xbf9c9c35509560f9	-0.027939637225558454
62	0x3fa39f5feceabc33	0.03832530753185672
63	0x3f9854f8a19f858c	0.02376163946599301
64	0xbf940e56ee0c3c2c	-0.019585951117786646
65	0xbf981013632bf73f	-0.02349882405086778
66	0x3fa7ea7166bf01a8	0.04671053294396482
67	0xbf8cebccd10865c5	-0.014121627930807965
68	0xbf91ed6d6507c1c7	-0.01750727585926073
69	0xbf908522f913c665	-0.016132875874012593
70	0xbf717d585266ebee	-0.00426992893920451
71	0x3f6e8fabf72629c0	0.003730617399189756
72	0x3fa13bb0a14cf90e	0.03365852326395401
73	0xbf9040b6a8dc8808	-0.015871862465367342
74	0x3fa9725da6b97c0b	0.04970066700183658
75	0x3fb2b7025e169612	0.0731049995143496
76	0xbf736372ac1f28f4	-0.004733512820118902
77	0xbf93736712772ea4	-0.01899491357998663
78	0x3fb3a083a48bf990	0.07666800276999752
79	0xbf848479d76e9ad9	-0.010018302809681344
80	0x3fa3982c2f5c0a60	0.03827035978431037
81	0x3fa7af12ece0acb7	0.04625758306095789
82	0x3f95a527c74fdd01	0.021137830295598018
83	0x3fac2d264490467b	0.055031963224007684
84	0x3faf83adae7928a2	0.06155150179672943
85	0x3fa69bd5725276ed	0.044157667355859555
86	0xbfa04498e8a8fa82	-0.03177335586632514
87	0xbfa1f1861866ba00	-0.03504580543391356
88	0xbf84cae7c8706438	-0.010152636341489538
89	0x3faed995440d73f0	0.06025377708167656
90	0x3f90c3e4a976a4e7	0.016372273295620323
91	0xbf9a2f12612a568c	-0.025570189648155536
92	0x3faf3c24f61c6535	0.06100574020656283
93	0xbf9810254fe48b4b	-0.0234990911495843
94	0x3f86765017abf07d	0.010967851374054977
95	0x3fb967932b422b66	0.09923667722811799
96	0x3fa261e5cf9958ac	0.03590315016906351
97	0xbf94e1bce7316ef7	-0.020392371760279606
98	0xbfaac8bbc85c682f	-0.05231272526562269
99	0x3f9c167cd14da296	0.027429533266885096
100	0xbf912265c76110a9	-0.016732778829706394
101	0x3fa3ad839889e349	0.03843318211597208
102	0xbfac047867667637	-0.05472160589418389
103	0x3f91b120498891e7	0.017277245033385482
104	0x3f791216bcfc7a7b	0.006120766469193679
105	0xbf9e4bbfce2b1ed0	-0.029585835417292483
106	0x3fb22b04c3f5abf9	0.07096891197367929
107	0x3fb14e4c6c4a15f7	0.06760099071296809
108	0x3f6168bb088ce3b1	0.0021251347538080102
109	0x3fa070135fbd4952	0.03210506957715843
110	0x3fb3ee231c90732e	0.0778524346100766
111	0x3fb5cdef85ffd3c1	0.08517357846706287
112	0xbf63b26ef1be941a	-0.002404419601548924
113	0x3f937418853fc61a	0.018997557766800545
114	0x3fbc9c3d9154e6ad	0.11175904081474171
115	0x3fb79042cb599fe2	0.09204499687768888
116	0xbf97dd6eb0ff3719	-0.023305635026011993
117	0x3faa6a4d0b010185	0.05159226188016234
118	0x3fa1a7acc4e0ac0e	0.03448238280574155
119	0x3f9514ee3987b0a3	0.02058765627036564
120	0x3fa2e478676fa6ce	0.03689934027336293
121	0x3f852b42c5f19021	0.010336419740447468
122	0xbfa297ba020cc8df	-0.03631383204482729
123	0xbf443970081c709a	-0.0006171986608225655
124	0x3fa5757c605e9782	0.0419119708670186
125	0x3fae613b707bd0b9	0.05933557270137286
126	0x3f725f5d47022e3a	0.004485477795366283
127	0x3fae27eebdd33174	0.058898411437982384
128	0xbf9a01fa2ed583ed	-0.025398167713664255
129	0x3f7dbe84cb856d81	0.007261770945059865
130	0x3fa0c9c35081dae6	0.03278932912592385
131	0x3fad01bf03fe99c6	0.05665394710313225
132	0xbfb998ba48e04a38	-0.09998668936922506
133	0xbf8cd6e6cb626c8c	-0.014081767160226265
134	0xbf886dc3be14fd9d	-0.011928109396307113
135	0x3fa3414cf9c62063	0.037607579698545356
136	0x3faf72b1e68db64f	0.061421927827592364
137	0xbf66e8133d2e2afb	-0.0027962089311065453
138	0xbf90c9bf610df32a	-0.01639460592149359
139	0x3fa789a7df2b71ae	0.045972105018992834
140	0xbfa12bcb47f0abf3	-0.03353724721122111
141	0xbf91fa5932e7000e	-0.017556565982658916
142	0xbf967955ab272327	-0.021947229930250913
143	0x3fbb9a6dfa10c91d	0.10782515864483284
144	0x3f745b46f3768362	0.004969861175965958
145	0xbf90d6aaccadd7a7	-0.016443890326136714
146	0x3f9494466050f815	0.020096873882941752
147	0x3fb2791f848edbfe	0.07216069208412532
148	0xbfaad3c17170d137	-0.052396817300549285
149	0xbfaca41bd54241ce	-0.055939550192423235
150	0xbfa43e0727d52bcf	-0.03953573571433077
151	0x3fabab62f5ccf002	0.05404195070738639
152	0xbf6cc4c530e98826	-0.0035117961299855503
153	0xbfa0a84c99c9159d	-0.032534021160738315
154	0x3f5a89f21c8f5908	0.001619802891800472
155	0x3fb185b83558c7ff	0.06844664862072135
156	0x3f9d53a051ed7e7c	0.028639321327658326
157	0xbfae0ab924cfd79a	-0.058675561660421496
158	0x3f96319b4bbb4786	0.021673609254157643
159	0x3f8b3bc09b9dfd32	0.013297562359865542
160	0x3fa651b39a9a094a	0.0435920835707458
161	0x3fb3986a280318d2	0.0765444133458886
162	0xbfa4a1ef0ed86d82	-0.04029795700281637
163	0x3fa67e7d84c02b24	0.04393379445544657
164	0x3fa18c81ea57fbd8	0.034275112015158704
165	0xbfabf79e2d216ea9	-0.05462354947004872
166	0x3f91a8d01cb9a7ab	0.017245532754180875
167	0x3f9c962c4f58f509	0.02791661485956801
168	0x3fa767ef82335d51	0.045714840549119125
169	0xbfb36bce0984b0e6	-0.0758637212026688
170	0x3fa253ae8e29a5b6	0.03579469190010391
171	0x3f9ba0a5136579c7	0.026979998883115443
172	0xbf93cd84f6bb311a	-0.019338681754377786
173	0x3fa3b52999a35365	0.03849153519119034
174	0xbfa017b21574789c	-0.031430783385290456
175	0x3fa8cccb9b1a8cef	0.048437464412268365
176	0xbfb2c8a40a5acc74	-0.07337403538513049
177	0x3f9cf1ca7c96696f	0.02826610932752643
178	0xbfa16c979f06b420	-0.03403161827314016
179	0x3fb31f858b969bd1	0.07469973237912987
180	0xbfa8d147d2f9a4a4	-0.04847168398266291
181	0xbfb58b2a2fb784a8	-0.08415473618471714
182	0x3f9754f2027f6efc	0.022784978296711764
183	0xbfb318269c2b6663	-0.0745872622750539
184	0xbf886135485d7f99	-0.011904159804259783
185	0x3f91284691f2052d	0.016755201967048428
186	0xbf7d1daf30fe0d69	-0.007108387318911149
187	0xbf9093cb257584c3	-0.016188787614173316
188	0xbfb41891711df011	-0.0784998799480834
189	0x3f880872d296430e	0.01173486428413775
190	0x3f6a22f64bb2c51f	0.0031904993498633872
191	0xbf8beb62455f1727	-0.013632552854584269
192	0x3f836a7ef76bea88	0.009480468679148105
193	0x3f9804cd7895bb1b	0.02345582054607141
194	0xbfa3420bf40d2178	-0.03761327127591846
195	0x3f95932c91cb81f3	0.02106923713552251
196	0xbfa92d938ce80357	-0.049175845098949615
197	0x3fb26ca0e58ae8dd	0.07197003940646902
198	0xbfa432c9041155d0	-0.03944996046690685
199	0x3faf1e326ada9540	0.06077725939148104
200	0xbfc28d150b8f174a	-0.1449304872932607
201	0xbfa5e13598644014	-0.042733836033335276
202	0x3fa63f139be23e96	0.043449986246853076
203	0x3fa931773d714e40	0.04920551896125547
204	0xbfb26f05cf2e21e5	-0.07200657184706179
205	0xbfb0b23128c09d9a	-0.06521899456912764
206	0x3f8488f987e3d674	0.010026883563550394
207	0x3f9087a2a680bbf9	0.016142407810715274
208	0xbf96063c05f616f4	-0.021508157600257996
209	0x3f952eb13bc32219	0.020685929558370206
210	0xbfa48e4e267ecac9	-0.040148203086024355
211	0xbf9311fabd93f2de	-0.01862327367870164
212	0x3fa9d4de748bd5f2	0.050452186323962325
213	0x3fb18e924c764623	0.06858171812771068
214	0xbfb594b492480af4	-0.08430031367610608
215	0x3fa8f5b70ebe7c7e	0.04874965720159084
216	0x3f581ff48491c9fc	0.0014724624509453435
217	0xbfabe1e9f6d2a0d3	-0.05445796144459938
218	0x3f863ac3bb6d03fa	0.010854272038729452
219	0x3fabeb858a91a39b	0.05453126255526471
220	0xbfaded56aa5f2c4d	-0.058451374337515995
221	0xbfb3755df272b8de	-0.07600962800163155
222	0xbfa9e8f1f582b54e	-0.0506053554721385
223	0xbf681f3a28a5f0ca	-0.002944577781077572
224	0xbf976d00d9e84840	-0.022876752185830407
225	0x3fb78d7382157c33	0.09200212407948598
226	0x3f8af06a7dd2990c	0.013153869595339283
227	0xbfa54e053088ba31	-0.04161087243516127
228	0xbf9d39a435931268	-0.028540197153022723
229	0x3f8f446590637659	0.015267175167930679
230	0x3fa347314157ad04	0.03765252993238202
231	0xbfa664eb400ca855	-0.04373870045522269
232	0xbfa0b1afef7241fe	-0.03260564611366944
233	0xbfaf2f786186f0bd	-0.06090904417530527
234	0x3faf2dd4807954c5	0.060896530802588646
235	0x3f6d6ba48addb422	0.0035913671226155556
236	0xbfab31b6c1c77c5d	-0.05311366191357856
237	0xbfb0b30a5a353a0a	-0.0652319402918026
238	0xbfa2cb4068e19b67	-0.036706936648264236
239	0x3fb2e051d8b5a3f6	0.07373534718284688
240	0x3f8f2c74cb906aef	0.015221512281688969
241	0xbfa177a4bb6bb631	-0.03411593234873712
242	0x3f5940c396b49311	0.0015413198514774888
243	0x3fb252b4e412c8a6	0.07157450264165507
244	0xbfa733702c6aa6b3	-0.04531431715197467
245	0x3f8f673c9281c2bc	0.015333626957926831
246	0xbf90ba64124a2f97	-0.01633602487213145
247	0xbfb0c848d49e28db	-0.0655560988508656
248	0x3fb039110e97e025	0.06337076765328271
249	0xbf9ee008a74e31d1	-0.030151496135248316
250	0xbfab9abc4a88f20a	-0.05391491327143079
251	0xbfad978f70e8c131	-0.0577969384506808
252	0xbfa956666f6790af	-0.049487305735767755
253	0xbfb502ad8d084ed0	-0.08207211201834785
254	0xbfba37a8eab781a6	-0.10241180162802851
255	0xbf8e965dd5858bc3	-0.014935238913215692

cnn2.bias f8 [8]
0	0x3fb34b285537b50a	0.07536556320674861
1	0xbf8412b1eea8e606	-0.009801282974069469
2	0x3f20d794c9ff5714	0.00012849513313877763
3	0xbfae543ec8aa1ca0	-0.0592364902450353
4	0x3f5e018aaab9c298	0.001831422249690606
5	0x3fa41df6462bc606	0.03929109198169205
6	0xbf903811d0214f15	-0.015838888481382336
7	0xbf6721c5c1a6d329	-0.0028237211638163684

cnn3.weight f8 [8, 8, 2, 2]
0	0x3faab5ff5d270c11	0.05216978084674662
1	0x3f923d56b99a8e91	0.017812113836625235
2	0xbf9217c3a2311f33	-0.017668778204352264
3	0xbf9b316528e7c063	-0.026555615064296833
4	0x3fa71c9d42ded521	0.045140184796233614
5	0x3f9c70e13f25a066	0.02777435253065654
6	0xbfab2a2be66b9257	-0.05305611789461711
7	0xbfaa5363ae1e445f	-0.05141746044604
8	0x3f90f22fa412181c	0.01654886664302789
9	0x3fad83a7358e15f5	0.05764505890605768
10	0xbfaacc8c8effce3e	-0.05234183545681191
11	0xbf461c0e85a288a1	-0.0006747313411959063
12	0xbfa84dbc0a12dc42	-0.047468067388245064
13	0x3f95e9d4b05f5e98	0.021399806275296557
14	0xbf9edbb25fc84c57	-0.030134951683134705
15	0x3f73578f0f9e7338	0.004722174484325596
16	0x3fb9c6c06d7d69ab	0.10068895981877428
17	0x3fadcdcc5b864025	0.058210741207517715
18	0xbf7978bd32d6dfaf	-0.00621866136264508
19	0xbf9bf1c02158bf62	-0.02728939250499652
20	0x3f732acff1b69864	0.004679500848771754
21	0x3fa08ab53af44fd3	0.03230825752885349
22	0x3f919b003d2d926c	0.017192844137201055
23	0x3fb25bc808582538	0.07171297267645549
24	0x3f9a586e215ef84f	0.0257279594295528
25	0x3fb070f86541be3f	0.06422378990259235
26	0x3fb91e0113e158af	0.09811407790525338
27	0x3fba8a65c18d3acf	0.10367427802450922
28	0x3f95967755b1ae47	0.021081795316076925
29	0x3f689a2178e9c634	0.003003182769412383
30	0x3fbb586065281f9b	0.10681726903578552
31	0x3fb3b9610b595eb7	0.07704741026952432
32	0x3fc0aa2a9bfc1a58	0.13019306770748318
33	0x3f88eb86a5c6e751	0.01216798013125567
34	0xbf8d787e7abeeb02	-0.014389980431464892
35	0xbf9d732b2d985962	-0.028759646089463138
36	0xbfc210d7d6ed2d15	-0.14113901133018972
37	0xbfc1c55c68feceba	-0.13883547903752974
38	0xbfba91ca3b9fa200	-0.1037870784345003
39	0xbfadfb177d3341c4	-0.058556303055982833
40	0xbfa82d224e212b53	-0.047219345128346156
41	0x3fbc5335487fb166	0.11064465541830301
42	0xbfc07a4a03c5f08e	-0.12873196777571078
43	0x3f5a4c6f44c3857a	0.001605137501478586
44	0xbfaf19b4ffbb364b	-0.0607430040523523
45	0xbfb925ff094a3ffc	-0.09823602654273594
46	0xbfb0989e74e8c987	-0.06482878069144792
47	0x3fc3bfadf6ae4673	0.1542870954986487
48	0xbfbe29a66be4ffc1	-0.1178230298437475
49	0x3fa81b06e32ac651	0.0470811989120078
50	0x3fbb3f5defee5d8e	0.10643565280621756
51	0xbf9d7f4108376b22	-0.028805748106473968
52	0x3fb17b9123cac262	0.06829173206166098
53	0xbfaa21563adb5f36	-0.051035589871104056
54	0x3fb83bbd4ca21258	0.09466155167508228
55	0x3fc275726994467e	0.14420919566378027
56	0x3fb6632e55e72401	0.08745088193167307
57	0xbf94e01a8f517705	-0.02038613795990953
58	0xbfaab923554628e1	-0.052193740996772105
59	0x3fb7b4a33326d6e1	0.09260005949803542
60	0xbfba63fcc71956a5	-0.10308818684401418
61	0x3fbefe1219e17728	0.12106431133130668
62	0xbfb0a261859f0822	-0.06497773658978237
63	0x3fc07ebbb8100713	0.12886759269172696
64	0x3fb6fd0f224466dc	0.08979887568093708
65	0xbfb1b0f786717242	-0.0691065505247446
66	0xbfb5f5f664e29a05	-0.0857843395520846
67	0x3fc59a50bd2fc400	0.16877183187128253
68	0x3fba48eab79710fd	0.10267512304477928
69	0x3fb8a67861c636aa	0.09629013430659464
70	0xbfc0bd3c3b5535e6	-0.13077500245201107
71	0xbfadc95ea63825f0	-0.05817695406956236
72	0xbfa5964c519f43f0	-0.04216230865825554
73	0xbfa41c14f3b378ac	-0.03927674746386009
74	0x3f9002d34fcd7022	0.01563577818465956
75	0x3f9ec3d097d036b1	0.030043849245024293
76	0xbfbbff84f4133abd	-0.10936766585221398
77	0xbfbc06d41941d22b	-0.1094791947996973
78	0x3fc1c57c446ddd2d	0.13883927670733823
79	0xbf9c136ce223817b	-0.027417851736460257
80	0x3fa0fe40b1ba67c0	0.03318979424984958
81	0xbf7f08d5990a8e67	-0.007576784483407906
82	0xbfb212d4e05b589e	-0.07059984662496041
83	0xbfa082571b726e7d	-0.03224441728636138
84	0x3fc5aa0758a3ffb0	0.16925136402278218
85	0x3fbf2dab79414ba5	0.12179061613396287
86	0xbfa095086a7045c7	-0.03238703059481512
87	0xbfbef818baac209e	-0.1209731536620233
88	0xbfb07337c7c3c0b0	-0.06425808550898426
89	0x3fbaa8c9ccfbbbdc	0.10413800482250174
90	0x3fa2b8f898f6b3db	0.0365674673770184
91	0x3f8ba9181d69863e	0.013506115338887455
92	0x3fb834214e1f981c	0.09454544217405253
93	0x3faef23507e3f056	0.06044164391821087
94	0xbf88fe1511e0c200	-0.012203373535244033
95	0x3fc0d99bba687b7d	0.13164087869605715
96	0xbfc155036f2bb803	-0.13540690353642057
97	0xbfbe84466990c91c	-0.11920585706028358
98	0x3fc9180d2f1973eb	0.19604649352814305
99	0xbfb62632ce1c297c	-0.0865203622053396
100	0x3fa12b9240fa22e1	0.033535547668241746
101	0x3faac48ee79fe737	0.052280870222558944
102	0x3fc473f9736ebb17	0.15978925834993937
103	0x3fbc1e163362e432	0.10983408693836408
104	0x3f801e930aca65fd	0.00787081600838046
105	0x3fbbef47492b0201	0.10911984955146893
106	0x3facf8c393adc30a	0.05658541848868566
107	0xbfaf9570f0e83c9d	-0.06168702069054997
108	0x3fae9cc867518baf	0.05978990803921335
109	0x3f97e3a67462cfd0	0.023329354146610914
110	0xbfbb4a1a02bc1e02	-0.10659945074814206
111	0xbf924694f644af84	-0.017847373515152323
112	0xbfb6ab794a098861	-0.08855398232984292
113	0xbfae9f32d9331078	-0.05980833913193434
114	0x3fba1bc3d2659a04	0.10198615919726
115	0x3fac9ca2a91e1b1a	0.05588253321098176
116	0xbfa36cfde8736910	-0.037940916657776325
117	0xbf949b85ffada7bf	-0.020124524813048824
118	0xbfa57e56fbe14e8c	-0.0419795210333663
119	0x3f9128459e5075ea	0.016755187785852423
120	0x3fae9ad627cc88e1	0.05977505908801262
121	0x3fae8a8b74b07c14	0.05965076255255766
122	0xbfa1a2802bc12a57	-0.03444290670502841
123	0x3f86fd721c4aa08c	0.011225596893680988
124	0x3f8bb6103873f231	0.013530852053457472
125	0xbfb37fff98903831	-0.07617185091677993
126	0x3f94a4f0507d45c4	0.02016044131534557
127	0x3f8b61a04b66cc52	0.013369800854752398
128	0xbfa1fe1f36c37e75	-0.03514192145825926
129	0xbfa7cbb020f2d209	-0.04647589113429624
130	0x3fb5c6a6d5e6ed31	0.08506243440836127
131	0x3fbf6785bc0a241b	0.12267337647257685
132	0xbfb06535a693115f	-0.06404433552512988
133	0x3fa6ab87f2b19ddb	0.04427742803164466
134	0xbfb1c4fec5287557	-0.06941215814045641
135	0x3f8406efe99f26da	0.009778856579845497
136	0x3fc07498a23090c4	0.12855823439998038
137	0x3f9a339c12233ba4	0.025587500197442062
138	0x3f6b605aeff03ab9	0.0033418441885325304
139	0x3f99f51beceb66fd	0.02534907945196262
140	0x3fb7487e5dfa1e06	0.0909499148784719
141	0xbfbf6934d5b4c055	-0.12269907205041027
142	0xbf82b7ee0285bc2b	-0.009139880611398329
143	0xbfb5e8e4fd2e56a4	-0.0855849378698062
144	0xbfbc00f847bfcc04	-0.1093897986573183
145	0xbfbb9937c1155abb	-0.1078066679377611
146	0xbfb728e30ce4e2b8	-0.090467634819002
147	0xbfb3e5764cd19186	-0.07772006392912631
148	0xbf8f50705ba0bf5d	-0.015290143772375303
149	0x3fa223c9be70d421	0.035429291245613344
150	0x3fa0e54ec0d0171c	0.03299947837517278
151	0x3fab8f16cc6a9f17	0.05382605786627275
152	0xbf961219d3ab2823	-0.021553424400544096
153	0x3faa76ef8642574d	0.051688656939559686
154	0xbf89e83154d52eee	-0.012649903680219645
155	0x3fb3a900e5d565df	0.07679753886386419
156	0xbf970880419b4fcc	-0.022493366245569565
157	0xbfa0e38a6f797566	-0.032985998256416946
158	0xbf8fe830bc02f84a	-0.015579586732538914
159	0xbf940421cc40c82c	-0.019547012416474427
160	0xbf716106987fc38d	-0.004242921604586847
161	0x3fa3ab740619c382	0.03841745924444863
162	0x3fbeb22c93453ef6	0.11990622134657855
163	0x3fb44d5e2b68755f	0.0793055397011435
164	0x3f999912be03814f	0.024997990462794658
165	0xbfb505f74e8075ac	-0.0821222845701956
166	0x3fa919426c3e9c80	0.04902083941788593
167	0x3fa7a8812e069b60	0.0462074631389473
168	0xbf9860580aa6ac3b	-0.02380502285965867
169	0xbfac9de568283dc9	-0.05589215179872615
170	0x3f7cff622ec39daf	0.007079490209640423
171	0xbfac9a2387e195ef	-0.055863485657749005
172	0x3f9bab1e69f2b50a	0.02701995393424731
173	0x3f908a80c3bf161a	0.016153346965230943
174	0xbfb58c40f25464f3	-0.08417135158778759
175	0xbfb76b1b0a3b9467	-0.09147805213759029
176	0x3f99e22028ce952f	0.02527666329446737
177	0xbfa4d30f8dbd8da6	-0.04067276578168881
178	0xbfaf9bb1d5ed2ae5	-0.06173473106772124
179	0x3fa7c5610c76e0f7	0.046427757998971524
180	0x3f9ac0309c5106c8	0.026123771229555698
181	0x3fa1d95c9fe3f5f9	0.03486146404064167
182	0x3faae2d6c16942c7	0.05251189337707767
183	0x3fbf9efb48f8b80d	0.12351961642772853
184	0xbfc186623f0cb3c8	-0.13691356733889237
185	0xbfb46a17554f3f93	-0.07974382241013549
186	0xbfcb01876b83c0ca	-0.21098416089762956
187	0xbfc148ce3ad33f4e	-0.1350343501312587
188	0xbfb9625685882a81	-0.09915676841789357
189	0xbfac1baf876be9fe	-0.054898724823903663
190	0xbfb308c5f37cb5b2	-0.07435261911879001
191	0xbfa373f489218302	-0.03799404310189482
192	0x3fa367fde0e48db0	0.03790276880524901
193	0xbfa636b32ffc2b83	-0.04338607750658865
194	0xbf98ed3933fc73f9	-0.02434243564413305
195	0xbfbccb539b8721c2	-0.11247751757685534
196	0x3fb6fa9386b9e962	0.0897609905167989
197	0x3f971be154653de8	0.022567291999903732
198	0xbf45ddbccda4fc81	-0.0006673023120028627
199	0xbfc152036390edbb	-0.13531534539820975
200	0x3fc046a069563fa2	0.12715535300639852
201	0x3f97e744c8d66d8a	0.023343157537607996
202	0xbf938b3e77b904fe	-0.019085861260696106
203	0xbfb0b1763feb6ee3	-0.06520785389460175
204	0xbfbe99059a084ca2	-0.11952242861325371
205	0x3fbbb2a7d2187bb9	0.10819481734550508
206	0x3fb2f62d55ed647c	0.07406886432490184
207	0xbfc25555950ff1bd	-0.14322919634277112
208	0xbfa758ee0eb82ef7	-0.045600356385049716
209	0x3fad761f5a30934d	0.057541827926150015
210	0x3faab46abe209e1e	0.05215772219554203
211	0x3f911b7425b60961	0.016706290055944154
212	0x3fa93bc3b84d1801	0.04928409218568675
213	0x3fc44a8408455ffc	0.15852404025895328
214	0xbfa485678cda7939	-0.040080295509357496
215	0x3fbc77facd04e600	0.1112057447943684
216	0xbf98b413818f060d	-0.02412443617118325
217	0xbfbf415d34afd3a0	-0.1220911267881335
218	0x3fb8f99142162988	0.09755809653703384
219	0xbf48d50420c62997	-0.0007578153759351555
220	0x3fb7ad50d5f60fa5	0.0924883386961129
221	0xbf6eff0a20ed1c82	-0.003783721716363043
222	0x3fb0ad0b5e699bf7	0.06514044814103657
223	0x3fa0de57ffba2672	0.032946348158543595
224	0x3f9876f2483f73db	0.02389124456373169
225	0xbfa80ccd7681b1ad	-0.04697267600645048
226	0xbfa37faf1d4abd6f	-0.038083526921918735
227	0xbfa1b87706648483	-0.03461048081431619
228	0x3f9d0240aada3a4a	0.028328905513769244
229	0xbf9ef1f75eb07b7c	-0.030219903139478074
230	0x3f93df737b87af3b	0.019407085814165042
231	0x3fb29413a348adfd	0.0725719712869974
232	0xbfb82e8ba63070bf	-0.09446022803644193
233	0xbfaee1c4bd99bb54	-0.06031622709712417
234	0xbf9222558343f9e1	-0.01770909894639228
235	0x3f96b41e44335c92	0.022171471512447534
236	0x3f9a599cd346f5da	0.025732469935737835
237	0xbfae4bd5ea5419c3	-0.059172329763942176
238	0x3faa96a29bd871f0	0.05193050529871701
239	0xbfbfe80276f19b95	-0.12463393596554646
240	0x3f9023e3d6adaafa	0.015761909463814817
241	0x3fb314cb9ce8ebb5	0.07453606205755998
242	0xbf9246af73eb97f4	-0.017847768259251454
243	0xbf830020dc7efd9c	-0.009277588585858969
244	0x3fadbc4dd38ae417	0.05807727057749206
245	0x3fb81547c776f1d1	0.09407471294156912
246	0x3fac204c0fa0bb98	0.0549339074208241
247	0x3fc78b75ce83ded8	0.18394348701234864
248	0xbf9fc938e75410c3	-0.031041039580501428
249	0x3f9500ee9d14d864	0.020511368119706566
250	0xbfc0357b3b2473a1	-0.1266321219235609
251	0xbfac348422abf044	-0.05508816645848971
252	0x3f8e2d45e3192342	0.014734788887965092
253	0xbf6e12068d4763f2	-0.0036707046476576128
254	0xbf7f8cf056eaa325	-0.007702769113770801
255	0x3f91462618ab13fd	0.01686915898860163

cnn3.bias f8 [8]
0	0xbf91f4dd89b72fb1	-0.017535649805537627
1	0x3fa00d3287ae3290	0.03135068804030994
2	0x3fbda09045a13741	0.11573125553078702
3	0x3faa67c9b3d04ea9	0.05157308883658846
4	0x3f9d2fa6b48fff58	0.028502087374362745
5	0x3f81dc26eb9e5c8a	0.008720687928685206
6	0x3fa7146d0b1a7459	0.045077712636363905
7	0x3f73301a5aea0f8b	0.004684546422712442

fc1.weight f8 [64, 72]
0	0xbf9ede96314be9a9	-0.03014597583658377
1	0x3fa463fe883c4524	0.03982539570837165
2	0x3f8c96d2d08520fc	0.013959547985578961
3	0x3f6ff3e76ab2c591	0.0039004821643053374
4	0xbf95d0d46a0eb0bb	-0.021304434750775352
5	0x3fb6a3fdddd1e230	0.0884398142387759
6	0x3fa149d8ef37ad26	0.03376653595099759
7	0x3fad6dcae94c58d8	0.05747827623251717
8	0xbf63d73d1184041c	-0.0024219696753111763
9	0x3fab1389bdfc74eb	0.05288343853156071
10	0xbf93fd29475b6a68	-0.01952042100934151
11	0x3f722fdfb17cc2a6	0.004440187265388451
12	0xbf9e51ba22ea5097	-0.02960863912683517
13	0xbf9a0843f3c62762	-0.025422155145441556
14	0x3fa36b18bb069880	0.037926457243245615
15	0xbf9e77aa42f7e5a1	-0.0297533610700832
16	0x3f8ce0bed4078e19	0.014100542874934384
17	0xbf9213505f555328	-0.01765180189007079
18	0xbfa015145be2156c	-0.031410824028209244
19	0xbfb275468c534e39	-0.07210198331750285
20	0x3f802893feaf8cb5	0.007889896592990867
21	0xbf8d667335b0d676	-0.014355564189922659
22	0xbf8ddf3e58f2aba5	-0.014585959519839717
23	0x3f9c0c50fbdb79af	0.02739073312010881
24	0x3f9847397cb22000	0.023709200130298314
25	0x3f94f77317f70fe5	0.020475195253098284
26	0xbf8b08728a45827d	-0.013199705929481493
27	0xbf94b2db1ee0de55	-0.020213531264941704
28	0xbf81ed3cedba319c	-0.008753276829587979
29	0x3f77db288e751266	0.005824240134931635
30	0x3fa7f425e34b320e	0.046784576412026366
31	0x3fa005c6028744b5	0.0312940481268326
32	0x3fa2f91a1f760713	0.03705674776121106
33	0x3f96cace87544264	0.02225802136405476
34	0x3f95b4e6a343b1b7	0.021197894778127693
35	0x3f50152d130803a0	0.000981611268912476
36	0xbfabfb7d9de1a4cc	-0.05465309669745863
37	0xbfae75647641157f	-0.05948938315899976
38	0xbf9552856432df9d	-0.020822605362553415
39	0xbf835b35775108ea	-0.009451310828925991
40	0xbf852140c957b8df	-0.010317331451883792
41	0x3f8061103d869014	0.007997633817304041
42	0xbf516e925acef386	-0.0010639600034061127
43	0x3f6a22a0824aac44	0.003190339559599605
44	0x3f6b2f3b9787162e	0.0033184207825083445
45	0x3fa35b2e386071a2	0.037805027372289204
46	0x3fa06cd50ea75d1a	0.032080324209966274
47	0xbf8764a0ddef78e3	-0.011422402165348127
48	0xbfa345f5a92c751e	-0.03764312448604755
49	0xbfa287b5f0af3dc9	-0.0361916405014387
50	0x3f86d71c92fcca98	0.0111524803502097
51	0xbfb3aebaceb06b9a	-0.07688491388436916
52	0xbfbaf631ea514e5d	-0.10531913729328708
53	0xbfab369591c6ea52	-0.053150819821401143
54	0xbfa871e4445e6476	-0.047743924470702234
55	0x3f8aee2c6a432e43	0.01314959239279923
56	0x3fac717ae70824ce	0.05555328436100525
57	0xbf8437de628925db	-0.009872186071464497
58	0xbf9cd0780a1f987f	-0.0281389957598539
59	0x3fb1abac31120450	0.06902576635367663
60	0xbf97222ede070198	-0.02259133558413992
61	0x3fb19e50aec7e99f	0.06882194773780846
62	0x3fa5eacc41fda7bf	0.042806990676424565
63	0xbf9260d27ec03a5a	-0.017947472559223555
64	0xbf9fd73134174467	-0.03109433060109659
65	0xbf86ffd676be4c33	-0.011230159281501262
66	0xbf82020b694a5e3b	-0.008792962218009062
67	0xbf6493ff0e29878c	-0.0025119763898126587
68	0xbfac11e7c2cf0f83	-0.0548241067222355
69	0xbf4fb2054c1b21e4	-0.0009672666421574575
70	0x3f621eb5fd508f82	0.0022119097216250503
71	0x3faadcd67556d858	0.052466108153951196
72	0xbf8016a31a88361c	-0.007855676886744205
73	0xbf98e7d6c94dd2b9	-0.024321895634289634
74	0xbfb3627d30b39a09	-0.07572157324793961
75	0xbf9e8acaf8cdfc7f	-0.02982632773955318
76	0x3fb1b6fb2b6938a0	0.06919832048262942
77	0xbf91c3c61ebe71c6	-0.017348380686245134
78	0x3f97958b8ac4e535	0.023031406731410093
79	0xbf94d460e1ebdf57	-0.020341409482141994
80	0xbf89290080298623	-0.01228523627395634
81	0xbfa3929c644da6ac	-0.03822792744069878
82	0x3f525f7fc1598008	0.0011214015588834076
83	0x3f9f4560f4197cdb	0.030538096331267233
84	0xbf8129b13fad8501	-0.008380303149979175
85	0x3f59287627461939	0.0015355256883552006
86	0xbf905024be64d595	-0.01593072330543562
87	0x3f6d08fc5dc34e96	0.0035443238285582475
88	0xbf87c3583d300829	-0.011603059165285217
89	0xbfb0345cc79a55d1	-0.06329898713223449
90	0x3f9103802189d4d4	0.01661491589262172
91	0x3f982e820798aac4	0.023614913667340046
92	0x3f546f0436004142	0.00124717150902505
93	0xbfa6ce3d0417691c	-0.04454222369141034
94	0xbf79f523c1982657	-0.006337299034848329
95	0xbfa41faa9223efcb	-0.03930409463825376
96	0x3f94b14abe3739e4	0.020207565173956513
97	0xbf6a4591ede66f09	-0.0032070017034139292
98	0xbfad4e0dea0bc896	-0.05723613245017238
99	0x3f5a68a4d860ecf0	0.0016118631188096165
100	0x3f87adaf0dc6e840	0.011561744316043954
101	0x3f83cae2bb035c48	0.009664317447841367
102	0xbf78111348642f28	-0.005875659297327286
103	0xbf74d46831cceefa	-0.005085379609962132
104	0xbf995a839af9e390	-0.024759346326820586
105	0xbfad59178b9e75bb	-0.057320342820485114
106	0xbfa73445b88c0dd2	-0.045320681359978146
107	0xbfb1e8bd0e646752	-0.0699575576913081
108	0xbf978d14487f4aa7	-0.02299911205757135
109	0x3f598ed73ea9bcf8	0.0015599348068027746
110	0xbf8085dc29819763	-0.008067817703885266
111	0x3f9ab6fa45441b83	0.02608862922445666
112	0x3f8d59965e4ebf53	0.014331030610122452
113	0x3f86cc8eaf9df8b5	0.011132349714668125
114	0xbf40c0a0ac889902	-0.0005112442532364816
115	0x3f9dd858892c976a	0.029145606396148528
116	0xbf66928b46654400	-0.0027554245199685745
117	0x3f8a5086468305f0	0.012848900820588732
118	0x3f657a112d6cad33	0.0026216826912751844
119	0x3f98eddefe55bdd3	0.02434490611397939
120	0x3f98cfab2bbf21f5	0.024229692978936474
121	0xbf4475ad3b62d236	-0.0006243797168026869
122	0xbf628e78e0e5aace	-0.0022652016552247916
123	0xbfb18a0282d27a20	-0.06851211255932599
124	0xbfa830df08cc5120	-0.0472478578796276
125	0x3fab41c20db012ce	0.053236068888542584
126	0xbf9792e916a74a1b	-0.02302135658994518
127	0x3f43bc15376e1cf4	0.0006022552105243982
128	0x3f7d1c72b8c06a37	0.0071072083774433225
129	0x3f8c0f47d8263be8	0.013701020511488651
130	0x3f8a211c3a1c7a78	0.012758465312399311
131	0xbf81d8781168022b	-0.008713663130948643
132	0x3fb297f7b883bc3d	0.07263134245634802
133	0xbfa27e79bcd6dae5	-0.03612118177573168
134	0xbf95cf8dc84ad72a	-0.021299567556261646
135	0x3f8430a52fac2168	0.009858408467622495
136	0xbf9c0184c712e27f	-0.02734954323816163
137	0xbf8b21cea46b959b	-0.013248075859744904
138	0x3fa75054971f82ff	0.045534747550624026
139	0xbf53594fe536dbfe	-0.0011809616306501787
140	0xbfb2a5b21801ee81	-0.0728408154117748
141	0x3f9375d3c22886b9	0.01900416252659085
142	0xbf709555996167d2	-0.004048666354799795
143	0x3fa994e90ffd1eca	0.04996422119307693
144	0xbfc4f0b0e3718e1f	-0.1635953054966288
145	0x3fa74f7bca845a2c	0.04552828642970427
146	0xbfbd18be231c1416	-0.11365879399461706
147	0xbfa000c7105f4a19	-0.03125593256813292
148	0x3f9d1bc417717e75	0.028426231318347612
149	0xbf951ff9835d0dd5	-0.02062978615073326
150	0x3fb1034f86b902cb	0.06645676650169745
151	0xbf97a6cfd94fa4d8	-0.023097274435632226
152	0xbf935f9ba111a26c	-0.01891940279566244
153	0x3f79b77c8165a9f5	0.006278501843875341
154	0xbf86da81fc6f0422	-0.011158957973636478
155	0x3f75063e4ed988f4	0.0051329072863117615
156	0x3fafcc80ab3c9798	0.06210710611621478
157	0x3f8f32b44aa0d4db	0.015233429458115946
158	0xbf956c75f166f6be	-0.020921557292004726
159	0xbf78dcf515ab2d69	-0.006070096361053026
160	0xbf96b0bf0716f9c0	-0.022158608253215695
161	0xbfb29eb2e40d3f34	-0.07273405139607975
162	0x3f953a6bbc0156b5	0.02073067030899863
163	0xbf86e2cd2e4a2654	-0.011174777007244042
164	0xbf8f41438dd9bac4	-0.015261199728425885
165	0xbf74ad9eaa76d3c9	-0.005048389233185576
166	0xbf712d48683df4b6	-0.0041935757070607396
167	0xbfa273e347514778	-0.036040403800725096
168	0xbf94ddee320b692d	-0.02037784748504483
169	0x3f8452091522c9a4	0.009922095258251336
170	0xbfb9dac280f6c08c	-0.10099425934345357
171	0x3f910a999d16fce2	0.016641998494148498
172	0x3f9f9ee6e6b9c101	0.030879600365040897
173	0xbf81055bc3d7f875	-0.008311001695798329
174	0xbf918aa4cde4b379	-0.01713044649766313
175	0x3f7edabdaa5a2bea	0.007532826309794219
176	0xbf9c2de74502177f	-0.027518857561993123
177	0xbfa2fecb2aab7b73	-0.037100171049806806
178	0xbf9b4ad12b04923b	-0.026652591944314557
179	0x3f98c1614e78b6c1	0.02417518655254614
180	0xbf85fedb089b4747	-0.010740004730368858
181	0x3f6695b81d470115	0.0027569385513005564
182	0xbf9f6647a2bd9b59	-0.030663604076291182
183	0x3f7d7fe29dba3a96	0.007202038974027622
184	0x3f98ca734479855e	0.024209786466945153
185	0xbf98b41fc39994fd	-0.024124618829223888
186	0xbf732cc818217289	-0.004681378954128798
187	0x3f6ab732ba48abe2	0.0032611838126021956
188	0xbf7bdd8b4ef24566	-0.006803077863098172
189	0x3f9f7d070c13440d	0.030750379669203954
190	0xbf8b605773dea226	-0.013367350791512921
191	0x3f97ba6d201ef161	0.023172097287657126
192	0x3fa1c5246173ddeb	0.034707199951238575
193	0x3fa896d798edf8b4	0.04802583448234668
194	0x3f86dc291568e78e	0.011162110296129926
195	0xbfa5de9548fc1ba9	-0.042713799628521905
196	0xbfbcdef9d01a76ee	-0.11277734118126734
197	0xbf8fd2c25465b10f	-0.015538709831809187
198	0xbf5542d142aa64fc	-0.00129766879641685
199	0xbf77af9e51fa21fb	-0.005782717169161784
200	0xbf8edf165c1d16fe	-0.01507394283874985
201	0x3f99d65c85693bfb	0.025231786387219995
202	0xbf6c8a42d6d2b278	-0.003483896775455183
203	0xbf8ecec394741adc	-0.015042808502142284
204	0xbfab9a75443e24d3	-0.05391279657403349
205	0xbfa286da4ee2e72c	-0.036185094957046665
206	0xbf9f961282358b66	-0.030845917889915773
207	0xbf8e5392ce0a6858	-0.014807841217862869
208	0xbfa524dd59e68bc3	-0.04129687998217648
209	0xbf51dc71b637d892	-0.0010901556460090373
210	0xbf9e28447b53930a	-0.029450483348131086
211	0xbf81291cd4cabb99	-0.008379197353262135
212	0x3fa010af5399427e	0.03137729545108402
213	0x3f965ffdb3cf880a	0.0218505517003749
214	0xbf81ac4a57abc546	-0.008629399109369228
215	0x3fa4799f47367c8b	0.03999040359780633
216	0xbf9dd3063e87f4c5	-0.02912530666980186
217	0xbf9551a108997eaf	-0.020819202566029812
218	0xbf8332b22ca49a07	-0.00937403868426846
219	0xbfafd2eb803f73ae	-0.062156066327339374
220	0x3fa890122a5877d7	0.04797417418397714
221	0xbf705f7dd09a47af	-0.0039973177569140724
222	0xbfb96d74793792dd	-0.0993264003696583
223	0xbf9e2585396fad27	-0.029440003996495847
224	0xbf9c9121f6367750	-0.027897387173303756
225	0x3fa0a1e6ffd2da58	0.032485216835472286
226	0x3f8365034141dd5f	0.009470010212892786
227	0x3f945127ce53eab3	0.019840833633660803
228	0x3f91b34178758926	0.017285368897668317
229	0xbf97db3e61c31ed5	-0.023297285763674253
230	0x3f8535f6333705c3	0.010356830060916594
231	0x3face958548f5fef	0.056467781374237684
232	0x3f8a9fda285eee79	0.013000206334133001
233	0xbf8357a5ca19ebf9	-0.009444518308773896
234	0x3f80fd517fdccbeb	0.008295666422418043
235	0xbf82af39936084bf	-0.009123277483072177
236	0x3fa5cb1af1df2549	0.04256519510779328
237	0xbf6794aa8232f2e9	-0.0028785066839119755
238	0x3f93cef1a11c65da	0.0193441156944568
239	0x3f91f2af073a3735	0.017527327362180507
240	0xbf67ed711cf81733	-0.0029208382836739765
241	0xbfa234e1655f8c4f	-0.03555969583955997
242	0x3f8dcb32e45aa72e	0.014547727197470186
243	0xbfa74d3e96c303fc	-0.04551120367387537
244	0xbfa21e35afa5b81c	-0.035386731807065724
245	0x3f8f2f0d615c1b94	0.015226463826832938
246	0xbf90ddfd958d45b6	-0.01647182679454825
247	0xbfa3d94b6bda7393	-0.038767201343239986
248	0xbfa04708fc9d0d9b	-0.031791954838378454
249	0x3f5da3cdf1dd0f4b	0.0018090735606656912
250	0xbf89bd5f53f8a02f	-0.01256823039064167
251	0xbf683eb5f4a0783d	-0.002959590322475085
252	0x3f90343351d327e6	0.015824128979865203
253	0xbf8db6924ef0a4d0	-0.014508383783395834
254	0xbf70478f0e1c7a03	-0.003974493798323045
255	0xbf1cdc8cc5ecb61a	-0.00011009797297553033

fc1.bias f8 [64]
0	0x3fbf5187118a6c99	0.1223377626251242
1	0x3fb3eeaeb200ef01	0.0778607544497696
2	0x3fa38445b15cd8c6	0.03811853208610354
3	0x3fbbe5f2e1c1f3d6	0.10897748958264172
4	0x3fa4f77b08374820	0.040950627091334235
5	0x3fafcfae9d6f5f9d	0.062131363599916535
6	0xbf8f8e99122c1066	-0.015408702723569156
7	0x3face121469ec1a8	0.056405105467436656
8	0x3f962d8320541f20	0.0216579903108417
9	0x3fcf6f3865625809	0.24558167410276635
10	0x3fc1c49226af07a2	0.1388113678822807
11	0xbf8f499b8b8dff9d	-0.015277114101763628
12	0x3f6ad81b9b22fb36	0.0032768763713585626
13	0xbfa1d8ec3267145c	-0.03485811343447473
14	0x3f88cecf8c6abc04	0.012113210175213503
15	0x3fafbc80f466593f	0.061985044321021913
16	0x3fc5dd312b82736b	0.17081274628153706
17	0x3fc9a84263c18faf	0.20044736739066368
18	0x3fa229d31d2006b5	0.035475346856413216
19	0x3f7b7ad348a211af	0.006708932234804995
20	0x3fc32bde3e8e0edc	0.14977624945105716
21	0x3fa062689660c522	0.03200079761189502
22	0x3fb6ca0e6c38494a	0.08902063505255345
23	0x3fb0b3e30f165444	0.06524485700931942
24	0x3fa3ab54eb0f752b	0.03841653222455429
25	0x3fb6ef7dc43ed53e	0.08959184685848684
26	0x3fb3a744e91a659e	0.07677107516283008
27	0x3fbf23f8e79afc40	0.12164264349392884
28	0x3fc3b254290344a4	0.15387966158462973
29	0x3f9bf0ffe37f716b	0.02728652788197065
30	0x3fc28da7723baeb0	0.14494793966092834
31	0x3f9ad368026ff5d3	0.02619707598568317
32	0xbf620ba6556e680c	-0.0022028206544293435
33	0x3fc59af2380cca5d	0.16879108177961913
34	0x3fc0822810a2bca3	0.12897206127442926
35	0x3fb3757724875ca2	0.07601112977805483
36	0x3fc12a96defe6288	0.13411222351421181
37	0x3fb04a8865d538c7	0.06363728033213355
38	0x3fa7bfb2b58c34e7	0.04638441530378561
39	0x3fc7e517a86943b6	0.18667884562685594
40	0x3fb985437ec8a8d6	0.09968969197567232
41	0x3fbd53fabb87c77b	0.11456267431620219
42	0x3fa39ec6cefb34c6	0.03832074429156189
43	0x3fb5a2a5690c86cb	0.08451303305312334
44	0x3f92694a6aae5885	0.017979777108472667
45	0x3fcb4b4a43bdb947	0.21323517139121348
46	0x3fc5add01a662b2c	0.1693668488408887
47	0x3fc4179c76a223e2	0.15697055618900807
48	0x3f9ecf7356f35793	0.03008823602871009
49	0x3fc6b0a58daca1fb	0.1772658292550345
50	0x3fca793b7cd68d08	0.20682471843347394
51	0x3f6b678f81c8619a	0.003345279967344972
52	0x3f9005048f0ee91a	0.015644141418058678
53	0x3fa19e2e807509a4	0.03440995519715109
54	0x3fc7c814e423d7c9	0.1857935060467624
55	0x3fbaa3ba4f579155	0.10406078755437893
56	0x3fc8528cc37b58ee	0.19001922173510571
57	0x3faeddfe3c11eb5b	0.060287422974360814
58	0x3fbc584c0849248a	0.110722305319671
59	0x3fc6083bfe4d781e	0.17212629239196614
60	0x3fb51ddec389e486	0.0824870326413408
61	0x3fbcc91acd7890fe	0.11244361416226309
62	0x3fc0a76aa8ae4e7e	0.13010915027972553
63	0xbfac57106f95a740	-0.05535174715153213
