src/model.pth (torch_old, 55531 bytes, 10 tensors)

cnn1.weight f8 [8, 1, 4, 4]
0.13823835183293753 -0.004935596122715912 0.13102884484670302 0.20679702350671758 0.09101357825440415 -0.007211593144373439 0.15193272678995762 -0.18517578201881343
-0.2946114547661603 -0.21375564406706302 0.1112455991272426 -0.14747476573943433 0.12219849612570777 -0.10847164207862339 -0.22293705491122784 -0.15176085186925806
0.09867263810332152 0.03090408311520533 0.06473556866208109 0.12997606693918404 0.20023302060985623 0.15206197004444183 0.1930912222434656 0.02538709437592327
-0.12475787951712702 0.07355686360945961 -0.12690539112748636 -0.08292752695801002 -0.05164283985847686 0.14113816090618675 0.04618912327317658 -0.05740409369445375
-0.15082940731787634 -0.10161474473134388 0.16667202741315457 0.058742467463632854 0.1732200026757928 -0.024210732519952826 -0.0356977701018847 0.006083988494907562
0.23334480111265934 -0.19679221968531393 0.07340179988951194 0.03598049135080254 0.06716021761448487 -0.021283210902361613 0.23616281911607082 -0.09378093424119059
-0.009139411685912105 0.048318723909777234 0.1249535286585881 0.07613593093832345 -0.182822713635321 0.030356388151788705 0.054750300320263304 0.19672697508590659
-0.07094734283911634 0.08205730838677856 -0.012526284560809333 -0.0747233486835706 -0.04185504922285965 -0.18778603885939557 -0.2437532827720216 -0.07642452756206451
0.06853102057544225 -0.2856419531235456 -0.22603227039501012 -0.2566925489685871 -0.202591091006163 0.21553108632787746 0.13019463015382818 -0.10107530635820665
0.06826243269928901 0.1340146754660046 0.08136008863712031 0.21629204521906437 -0.08573799061636014 -0.016777453306615592 0.05144222300645172 -0.15563602260645454
-0.17076732859217975 0.14535121073018234 0.1235822176891292 -0.2082532170963114 -0.16231336818875816 -0.08768464842999837 0.11873493413198206 0.2391318959009238
-0.03103507180805807 -0.10087614165817814 0.22930706897622816 -0.21109406439004777 -0.26011405594181664 0.21827803365026535 -0.1523116649881436 0.17346356905528462
-0.06751441045906337 0.13111508636327823 0.18273319248474826 -0.010355418273521322 0.048371864520261064 -0.1954868092308621 0.10332822625213296 -0.11915065547161095
0.11285540118864627 0.1103284702256846 -0.01181554728264844 -0.1224294394598576 -0.04633980216047869 0.206939508109219 -0.00046294147829191223 -0.07082541389459686
0.17239167252580057 0.13005932333310458 -0.1250343622930559 0.18852223389222214 -0.0957708911607446 -0.11272253158850763 -0.008749995932870224 0.1468201544396237
0.22629557411328166 -0.10328398270628644 0.08547013996935526 -0.05896968120278792 -0.004003619745966962 -0.1171914361798982 0.1250818005229762 -0.0994651593157169
00000000: c873 1658 cbb1 c13f a5ea eefe 5837 74bf
00000010: f280 b99d 8dc5 c03f 288d 6f2a 5378 ca3f
00000020: e037 1876 aa4c b73f d873 504b e789 7dbf
00000030: e4a2 6016 8872 c33f 8319 e40b d7b3 c7bf
00000040: 5dd9 cf00 eada d2bf eb3d 4d4e 585c cbbf
00000050: 964f 1372 977a bc3f 5d06 ebff 73e0 c2bf
00000060: c8f4 7a90 6648 bf3f 2267 452b ccc4 bbbf
00000070: 0c84 f48f 3389 ccbf 5db8 cb4b e66c c3bf
00000080: 6aef a929 9c42 b93f 64b2 2be9 51a5 9f3f
00000090: 59a6 4a9e 8292 b03f bf1c 6246 0ea3 c03f
000000a0: cb9f 8c51 3ca1 c93f de31 2742 c476 c33f
000000b0: ca15 5792 36b7 c83f ea18 5710 13ff 993f
000000c0: 28c2 71e4 21f0 bfbf 8b55 9963 9fd4 b23f
000000d0: f510 4a94 6f3e c0bf 2b0a 3908 bd3a b5bf
000000e0: d389 8728 ee70 aabf dea2 a7b4 d010 c23f
000000f0: fe45 c7cb 19a6 a73f 5efd 25c2 1164 adbf
00000100: a548 dac5 604e c3bf 469a 6985 6c03 babf
00000110: c0e1 724d 8255 c53f 0d09 4921 7e13 ae3f
00000120: 46b6 40b3 122c c63f 93a6 8ac1 b2ca 98bf
00000130: b264 4166 fa46 a2bf 1580 d639 86eb 783f
00000140: 3939 bc10 3ede cd3f 05ed d3c9 7c30 c9bf
00000150: 9b34 fed9 75ca b23f 369a 4af3 086c a23f
00000160: b817 3f7a 6931 b13f dc38 1e1b 44cb 95bf
00000170: 733d 5150 953a ce3f afe2 8dfd 0602 b8bf
00000180: a889 5d12 afb7 82bf 5432 f455 3bbd a83f
00000190: 5fc2 1b57 f4fc bf3f b53c 6ef5 a47d b33f
000001a0: 74cc 0314 bc66 c7bf 70b1 58b9 be15 9f3f
000001b0: 12b7 a43a 3b08 ac3f ae13 1e7a 592e c93f
000001c0: 336b 3be5 9a29 b2bf 9d43 eb2f b501 b53f
000001d0: db86 3b74 61a7 89bf 43f2 d7c2 1121 b3bf
000001e0: 9057 2b67 066e a5bf 5bf3 c577 5f09 c8bf
000001f0: 5d34 e6bc 4e33 cfbf ffc6 7dce 8e90 b3bf
00000200: 180e 22bc 3f8b b13f 13ff c12f f547 d2bf
00000210: 16f6 971c a0ee ccbf ff9a bc95 a66d d0bf
00000220: 0f8d 2a3f 81ee c9bf d958 86cb 8596 cb3f
00000230: a110 50b7 37aa c03f a3de 3d3f 12e0 b9bf
00000240: 1925 fd93 a579 b13f e2bf 2794 6427 c13f
00000250: 5966 e5c7 03d4 b43f 26e8 4c2e 75af cb3f
00000260: 6ad6 b8c9 ecf2 b5bf f85e 0cd5 1b2e 91bf
00000270: be7a e492 a256 aa3f 764d 9695 e1eb c3bf
00000280: 5eac c32d b4db c5bf dd93 4254 de9a c23f
00000290: dd8a 578f 15a3 bf3f b893 5b9a 0aa8 cabf
000002a0: 6b83 0938 afc6 c4bf da3b 5e49 8072 b6bf
000002b0: ed54 fda2 6965 be3f c597 29bc df9b ce3f
000002c0: ba4a c769 a8c7 9fbf 8758 5ed1 04d3 b9bf
000002d0: 4e4c ff1c ef59 cd3f 35ad 775b 2105 cbbf
000002e0: 4700 e06c b5a5 d0bf 1d46 fbdb 88f0 cb3f
000002f0: 7b31 f6d9 f27e c3bf c1e7 11e2 0d34 c63f
00000300: 882e eed8 9f48 b1bf b2a3 f80f 61c8 c03f
00000310: 2bce ce1e cd63 c73f 20c4 91b6 3835 85bf
00000320: fb76 5270 32c4 a83f ae14 3936 b605 c9bf
00000330: 85b0 81f8 b773 ba3f 172b 8c48 a880 bebf
00000340: f33d 4871 17e4 bc3f e0e0 6f93 7c3e bc3f
00000350: ff78 4ee9 bf32 88bf 1636 8c26 8957 bfbf
00000360: 4b92 90bd d9b9 a7bf 832a ca69 fe7c ca3f
00000370: d79c 5c82 de56 3ebf 3928 6744 9d21 b2bf
00000380: 60ef cc29 ee10 c63f a5b6 20ae c8a5 c03f
00000390: d162 7640 2001 c0bf 0967 911e 7f21 c83f
000003a0: 5bb5 71ed 7084 b8bf 5fe9 b142 62db bcbf
000003b0: d977 f992 84eb 81bf 001e dbb8 00cb c23f
000003c0: 3ee6 05dd 40f7 cc3f c693 ecaf d170 babf
000003d0: c8f2 f3ff 5ee1 b53f 146b 7128 4631 aebf
000003e0: f825 fe7d 1966 70bf 2d91 c309 4200 bebf
000003f0: d315 4931 ae02 c03f 1a39 5a76 8c76 b9bf

cnn1.bias f8 [8]
0.08993874306293309 -0.08315269051822895 0.09368454862458211 0.05024363623361173 0.07555433446622413 0.03673283723942916 -0.03808849277436088 0.10835378076274796
00000000: c440 19b8 3906 b73f e1a6 59a6 7e49 b5bf
00000010: 92ac 7be8 b5fb b73f 1135 e9ac 88b9 a93f
00000020: 8d7d 9a63 8757 b33f 48e9 437d a5ce a23f
00000030: 70be a3bd 5580 a3bf 0222 c6c8 12bd bb3f

cnn2.weight f8 [8, 8, 4, 4]
-0.023676299953256756 -0.06822314895775328 -0.016474861193564696 -0.04560281377199395 -0.07675856604166989 0.011442370439418472 -0.11917674955132544 -0.02392523682181462
-0.06298691269629722 0.0060207294572618905 0.013735642140819971 -0.03814330170513595 -0.08085490167062837 -0.07199744027531767 -0.026919116075966944 0.05485869284845008
0.10064499088618496 -0.0447223541860548 -0.05850954147622619 -0.021105253999324412 -0.0034108631282549562 0.07647540921047259 -0.048871155604216586 0.0677770643889741
0.05804707532132602 -0.008164636864912346 -0.056184006854338976 -0.0336986875901175 0.011917421814837284 -0.05070346686855415 0.04447552002892081 0.050285517415845
-0.059713224385878304 0.11276886726327777 0.02152941347831225 -0.07176143069207531 0.012617955496616186 0.056705644177589706 -0.08154155751767984 -0.04347221533112918
0.019230034802415655 -0.03169405161475943 0.0203540468344555 -0.03445644448528945 -0.051368583207273784 0.04024584459686188 0.049571813235929935 0.06841839305974387
0.009388065100639444 -0.00943891685100386 -0.05595298566969882 -0.08050857451935256 -0.009009368696992434 -0.013431566540835504 -0.04254339177214439 -0.006791204290004569
-0.05211705724347467 -0.1491549803628605 -0.046808299266205736 0.07559199150584733 -0.029825342963060043 -0.1234189078534517 -0.06663790777061733 0.03629741647212857
0.012631132788654667 0.02497860830518353 0.03453026603080157 -0.09852086947054892 0.0017782352915228492 -0.056953808836921 -0.03061213745017688 -0.02612655440471207
-0.051216071516689034 -0.01058334947174337 0.05202937063672416 -0.004373337039493779 -0.05382443304224697 -0.01701118966488586 0.05681051820534705 -0.06035530029447937
0.036532948791553235 0.04348654024543523 -0.0024014442204703425 -0.029771213891088995 -0.05304192154176618 -0.06500592943340096 -0.0390593505365101 -0.0017919465126666695
0.004657069113648518 -0.04440707945047775 -0.04337136844381737 -0.020032226999904663 0.05122249928168382 0.011447628494773725 -0.06232136734095796 -0.020305114017529505
0.06608323698618372 0.005566552242018745 -0.03249273846039598 -0.09347935454334805 -0.041433567224700894 0.03692138586453143 -0.02459157815720182 -0.0014694060682848877
0.036598211348798385 0.004222393416079283 -0.05791338082541818 0.06228980768464411 -0.05860168658724319 -0.0358292568095477 -0.021869411230089262 -0.023895534787296717
0.05530790600243293 0.07999022285683992 0.03650929038816173 -0.011405286799958083 0.02206363541606179 -0.04206454442341895 -0.06598063055600137 0.03195717627432406
-0.046400057442019325 0.013075445476911394 -0.005459999910648706 0.08181635900976275 -0.009472924444620412 -0.05060444718416342 -0.057530169056245 0.005191736593223436
-0.015325326082726696 -3.0462005974009523e-05 -0.0643242855491753 -0.035988338056355006 0.02474203119779139 0.0038824541404041115 -0.0540859003096232 -0.14093470369206346
-0.036931217955414646 0.0192234666006296 -0.01567822999297922 -0.007881168692652759 0.040906422007783355 0.06105925206636475 -0.036301267942038834 -0.050106326809221884
0.03557022570899349 -0.04011070270101515 0.03141030021827355 0.018321736493925173 -0.033270556991826704 0.016256031476937265 -0.001006474443678622 0.08277011171776927
-0.0019692269257396687 -0.037115759882396286 0.06348170482456415 0.037309751681285724 -0.060467917636071955 0.06113123475777383 0.04804536041280095 0.08633861955974992
-0.03311757015879045 -0.0347806859084025 -0.050070469724854294 0.03210181552019675 -0.06265709356288744 -0.025024490408771118 -0.028503690578574294 0.020945638475885466
-0.04324806200548646 0.01771237132330766 -0.019973371581737044 0.024583462686924313 -0.01629256207378571 -0.007112148388347595 -0.042022456557654735 -0.06082460959619556
0.026970357436679946 0.017542933080184443 -0.012827077404467065 -0.033000916055274776 0.054912926689570686 -0.07105753090244724 -0.07475418262128393 -0.025180001697767223
0.036530282979978214 -0.009800092652130915 -0.018351328005943454 0.02509583409089843 0.12213271394593637 -0.023024508443602515 -0.04302460893134334 0.06784556900387861
-0.005802786332547664 0.03648388541525775 -0.03592855956181033 -0.013078878233373385 -0.007687457125561717 -0.01785054972740775 -0.06320584583548346 -0.0037672093791977245
0.028478087766341347 -0.007454380131521065 -0.056903277701908284 -0.0859484209313349 0.0018103841935592012 -0.02879391359662928 -0.02131370045733712 -0.02989305141583844
0.022080670817164066 0.0036611490015270487 0.07953885754713069 0.04683776494992663 0.04020721866993548 0.028881015731035808 0.05803611389361572 -0.011187930497768287
-0.089525636796208 0.06549149650136839 -0.025816182685093798 0.08482918327992359 0.013019901632765833 -0.020608817639384876 0.032018497699614956 0.0043547991724717195
0.009795153727101468 -0.06051187837638979 -0.01069368682884717 0.017522408387623832 -0.05424946111612034 0.026992162716221877 0.003339218489113216 0.03763188977649545
0.04641072420677681 -0.08494803854593543 -0.05736025012024254 -0.024825800805602545 -0.08469632578376671 -0.03374132404906661 0.0018620590576529353 -0.0005999204890405327
0.048500954787603495 0.022184653137872816 0.057147427841990936 0.056877570018591464 0.039349079706765905 0.04880028657306105 0.045400864460256346 0.059370952869551866
-0.042917356512400084 -0.015763883982560373 0.017170865254016985 0.00522475896995871 0.0372629526912442 -0.04871678125117217 -0.00720257332637428 -0.03996507093160665
00000000: ce45 f597 993e 98bf 388b 9a81 1277 b1bf
00000010: a747 2138 c9de 90bf c238 8383 4059 a7bf
00000020: 623a d60a 73a6 b3bf 1bb0 9bf6 186f 873f
00000030: 033b c411 5e82 bebf cc84 cb76 db7f 98bf
00000040: 624a 1b0a e91f b0bf 383f df41 31a9 783f
00000050: a769 46ae 6e21 8c3f 5521 c5d2 8487 a3bf
00000060: 808a 6526 e8b2 b4bf e3d1 609b 6c6e b2bf
00000070: f7e8 bb4c af90 9bbf 09ed 5e47 7016 ac3f
00000080: 19c5 5cc0 dec3 b93f f82a 4231 d9e5 a6bf
00000090: dbe7 496e f6f4 adbf 46b1 cd9e 9d9c 95bf
000000a0: 9299 c832 19f1 6bbf a9d7 8175 e493 b33f
000000b0: 6b5f 13de a305 a9bf 1e33 f872 d659 b13f
000000c0: df5f 44a4 58b8 ad3f 5451 8c02 9fb8 80bf
000000d0: cdc8 fe6f 26c4 acbf fe3f 3c52 f440 a1bf
000000e0: 1b33 9447 2968 883f 980f fd07 cef5 a9bf
000000f0: 995d fecf 7ec5 a63f 84e8 86f9 05bf a93f
00000100: 8b8a c053 bb92 aebf 2b1a e7a4 6bde bc3f
00000110: 1968 2a7b ce0b 963f 41c7 ef05 f55e b2bf
00000120: 1451 9a51 71d7 893f 9e93 7bae 8508 ad3f
00000130: 8da7 cd52 e8df b4bf 6b84 437e fd41 a6bf
00000140: 342c 4fca 09b1 933f 7b85 53e6 333a a0bf
00000150: da1f fbf5 b0d7 943f b8c9 666c 46a4 a1bf
00000160: 918d d5a1 fb4c aabf c2d4 af74 1a9b a43f
00000170: bcb0 4d09 7a61 a93f eaef a228 de83 b13f
00000180: e1c4 a3c4 0c3a 833f 0a51 7af9 b554 83bf
00000190: 4a3c 21a7 dea5 acbf e0b2 9bbe 359c b4bf
000001a0: 451d 4aff 8073 82bf 662a 3758 0282 8bbf
000001b0: 5001 a558 3fc8 a5bf 7e65 3705 18d1 7bbf
000001c0: eb55 d940 16af aabf 42d5 58a9 8217 c3bf
000001d0: 5a39 0fe5 41f7 a7bf 7c6c 5b2b ff59 b33f
000001e0: 9d2a 79e2 888a 9ebf eb48 f0ac 6198 bfbf
000001f0: 5b75 8c92 2e0f b1bf beaa 5a31 9395 a23f
00000200: 35de e8f1 59de 893f 88d8 1407 fe93 993f
00000210: 4121 a676 f3ad a13f 5678 59e8 a938 b9bf
00000220: 7add fc9a 7522 5d3f fca6 acb4 0c29 adbf
00000230: c02f d6c4 c958 9fbf 11d0 e662 ebc0 9abf
00000240: ad36 6330 fe38 aabf 97fd e71e b9ac 85bf
00000250: 0be4 a1fa 97a3 aa3f c5b5 f1b8 c6e9 71bf
00000260: 75cd 4847 e08e abbf 3361 1b9d 616b 91bf
00000270: b884 85ab 4416 ad3f 7662 cfd1 e3e6 aebf
00000280: 1284 9258 72b4 a23f c635 5728 de43 a63f
00000290: 889a 7b8c 31ac 63bf ef08 1958 587c 9ebf
000002a0: 2882 ad8c 4f28 abbf 1569 f684 3aa4 b0bf
000002b0: 0f8b 5052 96ff a3bf e4e5 c1ea f75b 5dbf
000002c0: 1d02 9d78 4a13 733f f3be e653 86bc a6bf
000002d0: 8d11 19a2 c534 a6bf f592 52ff 5383 94bf
000002e0: 18eb 77de d539 aa3f 69b5 03b0 da71 873f
000002f0: c290 2415 96e8 afbf 545d 9622 ddca 94bf
00000300: d362 abbd d4ea b03f 058e 4bfd f3cc 763f
00000310: cafa 1662 e3a2 a0bf 0c68 9d52 43ee b7bf
00000320: 2b98 5fd0 c736 a5bf 4150 9f21 5ce7 a23f
00000330: a3d2 c4df 882e 99bf 103f 80c0 2213 58bf
00000340: 629d ab31 00bd a23f 4b62 201a 804b 713f
00000350: debb 4a99 d2a6 adbf e264 c21d 73e4 af3f
00000360: e1ea c34e 0a01 aebf 1a57 795c 3658 a2bf
00000370: 8964 1058 ef64 96bf 0e3c ba31 1278 98bf
00000380: ec3b fb5e 5151 ac3f 337d 2b3f 3d7a b43f
00000390: cd44 6f80 58b1 a23f 6e64 75ae a75b 87bf
000003a0: 97e1 2b82 d997 963f 684c 3de5 7b89 a5bf
000003b0: e250 684a 1be4 b0bf 6303 f1e5 b05c a03f
000003c0: fbf2 7d92 bfc1 a7bf b2b8 a195 4cc7 8a3f
000003d0: 74a0 d690 395d 76bf a487 39ba eaf1 b43f
000003e0: ad3a 7f65 8a66 83bf 0a54 607b d3e8 a9bf
000003f0: 5485 4225 9874 adbf d696 092e ee43 753f
00000400: a555 9b72 e262 8fbf d281 611c 15f1 ffbe
00000410: b4b3 c56e 8e77 b0bf 7b97 fa3d 106d a2bf
00000420: 9f12 539b f955 993f fecd f5b1 18ce 6f3f
00000430: 1b54 02aa 25b1 abbf 624b 9dfb 250a c2bf
00000440: ffd0 a30a a6e8 a2bf 2939 7601 51af 933f
00000450: 8ae8 5034 f40d 90bf 7e49 508e 0024 80bf
00000460: 2c8a 70c1 aff1 a43f 2f8c 7c85 2843 af3f
00000470: 5491 3a6d 1496 a2bf 7fc4 ef55 89a7 a9bf
00000480: 714f 43b8 4236 a23f 9210 a4d8 6389 a4bf
00000490: 85da 63c8 0215 a03f 7579 30ec eec2 923f
000004a0: f331 66a4 d608 a1bf 6e8a 39ce 6ba5 903f
000004b0: e193 78b4 757d 50bf 8001 ea0a 6c30 b53f
000004c0: 3d92 d2a7 c421 60bf 97df b83d d600 a3bf
000004d0: efa6 1d46 5640 b03f 8404 9686 431a a33f
000004e0: 7086 68a1 a6f5 aebf 11f4 18dc 974c af3f
000004f0: 7120 65c7 6699 a83f cc12 64ab 491a b63f
00000500: 1e8e 8241 c9f4 a0bf 78a0 0429 c6ce a1bf
00000510: f05d ed2b d6a2 a9bf 505a 9a2f a66f a03f
00000520: 230b b797 4b0a b0bf 8a73 9e1f 05a0 99bf
00000530: c7af 664b 1230 9dbf bab6 fd00 c672 953f
00000540: 9e9e db27 9c24 a6bf 0fda 451e 3123 923f
00000550: da0a f046 e673 94bf 3515 0d41 682c 993f
00000560: 008f 1955 ffae 90bf e74d b7cb a021 7dbf
00000570: d7b4 39a9 f783 a5bf c7e7 033a 6724 afbf
00000580: 399e 9b0c 1e9e 9b3f 0dd6 6b4f c6f6 913f
00000590: 31c1 a42f 1545 8abf 9011 64fe 7ee5 a0bf
000005a0: bdc9 8410 8c1d ac3f 0e4b 5c8b d330 b2bf
000005b0: 05fe 9811 1723 b3bf 3b75 384f c9c8 99bf
000005c0: 15de 6ce5 18b4 a23f 9066 822b 1212 84bf
000005d0: 2caa 7ec6 b0ca 92bf 7db8 beea b8b2 993f
000005e0: a765 2bec 1644 bf3f 4845 169b bc93 97bf
000005f0: e60d 9150 5207 a6bf f0d7 0cc4 535e b13f
00000600: 442c 6298 a9c4 77bf d60b 610d 04ae a23f
00000610: f6e7 9e68 3a65 a2bf 3ce2 3e52 19c9 8abf
00000620: 6a5a 190f e27c 7fbf 03ea 2d1d 6a47 92bf
00000630: 0588 c720 422e b0bf 053b 9622 69dc 6ebf
00000640: cbab 6f1e 5c29 9d3f 4c84 07ee 7b88 7ebf
00000650: 40a1 8729 6d22 adbf 26fd 0a39 b700 b6bf
00000660: 9eda e339 4da9 5d3f 79af e2d4 267c 9dbf
00000670: 751b af39 42d3 95bf 45ae d5b8 489c 9ebf
00000680: ab43 22bc 509c 963f 2962 4667 fcfd 6d3f
00000690: cc16 ed97 a85c b43f 8ef7 5a99 1efb a73f
000006a0: af40 8062 0a96 a43f 9305 2928 fc92 9d3f
000006b0: eeec 51d6 e8b6 ad3f 225e c89c b2e9 86bf
000006c0: 4b7b 31f2 26eb b6bf adb4 a3fb 0cc4 b03f
000006d0: 4533 5cb1 8e6f 9abf 7604 ef87 5db7 b53f
000006e0: 5cce ad9d 2daa 8a3f 0fe0 1457 7a1a 95bf
000006f0: a04a f980 ba64 a03f fb30 6c80 56d6 713f
00000700: 7369 5647 7b0f 843f bbd0 4ab5 69fb aebf
00000710: 73e6 a059 92e6 85bf 1654 e3eb 64f1 913f
00000720: 3983 a3da 95c6 abbf 293b 7560 d5a3 9b3f
00000730: e7dd 8e46 d95a 6b3f 10e2 c0af 7c44 a33f
00000740: 5db6 4d7d 25c3 a73f 1505 6a97 27bf b5bf
00000750: 58b1 b69c 525e adbf 7271 3a4a ef6b 99bf
00000760: de27 558d a8ae b5bf 7103 a1f6 8a46 a1bf
00000770: 77ae 5fb0 0a82 5e3f f376 b870 7fa8 43bf
00000780: 8c6a 46fd 1dd5 a83f ee12 cdde 92b7 963f
00000790: 9684 437b 6d42 ad3f 7a2b 368e 0e1f ad3f
000007a0: 5cbf ef04 9025 a43f 65c3 bbe5 59fc a83f
000007b0: 9c44 2238 c83e a73f 226d d099 de65 ae3f
000007c0: 7895 4d85 43f9 a5bf a8f2 a658 6824 90bf
000007d0: f910 d742 3d95 913f b4be 7c8e 8e66 753f
000007e0: 7a94 5236 2114 a33f 9ef7 7aec 67f1 a8bf
000007f0: e21f 240e 7280 7dbf 6563 4441 4d76 a4bf

cnn2.bias f8 [8]
0.047453485995736455 0.009678806976186668 0.003256560809066454 0.010484649140192044 0.014403080212318772 0.029758164555677886 0.07380575408636149 0.015043118700817927
00000000: b8a2 ddc4 d24b a83f 9e88 6a7b 7bd2 833f
00000010: 161a 84c5 80ad 6a3f a457 56c9 f978 853f
00000020: 18e1 c9b3 5c7f 8d3f 35f5 389e ec78 9e3f
00000030: 01bb 0e14 efe4 b23f e182 cc36 edce 8e3f

cnn3.weight f8 [8, 8, 2, 2]
-0.09083808364679703 0.004479417205011597 0.07917192933100817 -0.05259804348969261 0.054831689788396004 0.08321918043497743 0.12173398760350518 0.002086863352150618
-0.09095854633367699 -0.0684285707534237 0.016712373970191215 -0.13939917805773733 -0.06367628124985315 0.14915620390525866 0.10347314192214112 0.11474125589061197
-0.009895535488223278 0.12866365007523664 -0.14839211946561923 -0.05144865508272528 -0.06769818227784694 0.06685118569871445 0.06409213572364059 -0.08231703245712912
0.07508329883705026 -0.006663685223224571 -0.09395737296431836 0.08082263809736329 0.09769461510568321 -0.03157764050158321 -0.045654178288780226 -0.02894493951903903
-0.06346130455249888 -0.0787052073647036 0.07497043512738785 0.10423633192511055 -0.02745145415909055 -0.16437023663711328 0.17556467176449142 0.10388651364283184
0.03545625889568576 -0.14189800381243303 -0.061241293196397255 -0.15128157189293456 0.12193945643290838 0.05074378078250917 0.15350750612730604 0.1349076661928974
0.07232314393739855 -0.14437239778417224 0.024245211768154792 0.004396198567321255 0.09138746811324103 0.12919263134046846 0.06329308533122682 -0.0015607631080203725
-0.054466364133541514 -0.11411209293202054 -0.010404563977089084 -0.10347767249909133 0.11437402743544724 -0.1304754013294244 0.13919581217764307 -0.201355110431286
-0.0727708081171423 -0.0936587276088594 -0.07027090210956376 -0.055135035509181876 0.027998125808102924 -0.03487091312952568 0.018217132720166035 0.18810488373616177
0.019640647144488776 0.0014507338868519435 0.113106929699681 -0.1102934512173508 0.09174684662794129 -0.09419251955807824 -0.08863904735526625 -0.042769153628671536
-0.06753877815515186 -0.10562561730675493 -0.047743910772651464 -0.12243512380732721 0.11353773495949919 -0.05690297633996645 -0.11890623413671263 0.07810784551840325
0.009509803850456928 0.17818941841384625 -0.06817927569771887 0.21155538354093031 0.19623660145394378 0.012225874215065472 0.017176953090109724 -0.10086459170360017
-0.03711132316828598 -0.16573681729694262 0.05871049052639903 0.0766098782121523 -0.12601168794904558 -0.03301602085724463 0.10112724841233035 0.0646251886363503
-0.039850853123962963 0.09295427662312306 -0.14734434903242058 -0.16106749199775544 -0.095656629844894 -0.003955058288802458 0.035827320610791226 0.05620788456533008
0.17917876047552136 -0.028172991957168454 0.044919587976627394 -0.052739081870112725 -0.109716545149889 0.08874294604044741 0.0961082549939891 -0.20258157382924874
0.1544567801757864 0.0640423566694996 -0.040808031530799385 0.046894922230168494 0.1274645927082524 0.17993414774417368 -0.11434065807516748 -0.051718399901505
0.09904927849778411 0.08561754299309651 0.10022692914418867 0.07445145811633129 -0.0038200596389865588 0.1320521622250584 -0.04281345490698746 0.06635388300830485
0.06029500833262676 -0.029980625273730428 -0.1583436580513309 -0.046491367838366056 -0.169970899619171 -0.1596733332989126 -0.12611122272326938 -0.00894602183224672
-0.09268279485778887 0.18873962089445326 0.12647440713185065 0.03662621139886854 0.0896978566714191 -0.012973532040095234 -0.013095772848940477 0.08646581356064563
0.12819551100800747 -0.1171760596277061 -0.026809569881523224 0.10643660122218222 0.12721519913834511 0.046824160093920576 -0.037013458680851 0.007387398006376309
-0.1253234298532628 0.105262048244912 -0.029890693175318336 0.14926380507816223 0.003301454466145798 -0.06310215972776785 0.015606551130259511 0.16417729350589105
0.07391730746850231 0.05294056702069728 -0.14467750523102102 0.10857942511018744 -0.0782345506063682 0.12812256379959153 0.1555596940624121 -0.13471976381423703
-0.020653383603551016 -0.012153124941887644 -0.010588970019153765 0.015349480404182646 -0.19756458387877054 -0.05328668839316203 0.05121957437733533 0.04729058879088839
0.04536665303725568 -0.06589889205360616 -0.11184915265341851 -0.1646783024683155 0.15392028055195142 0.1152974951967474 -0.17358108865078362 0.13970032570895627
0.00681108916084941 -0.17075985080543196 0.10604760288584458 0.013444523240148804 -0.016546169010734454 0.1442525041403427 -0.12347686897633371 -0.11724213044820378
0.11286954566210788 0.026229798421013816 -0.017051917786213684 0.13019770006959758 -0.04956740202588761 0.09511146208925049 0.12004717736423921 -0.04738411126235493
-0.01295406372374105 -0.08061914817836166 0.14027713475416548 -0.12405808696912984 0.10438402730320573 -0.018767754883628394 0.17103156777430045 0.061321044735664826
0.1343836445350041 -0.20414912034809576 -0.1101612327999894 -0.04508535104953565 -0.0387350244550746 -0.027493296182105977 0.07156809999205375 -0.17887608207286984
0.09112533856811954 -0.04366265541635315 -0.14890738601959166 0.17124263497951556 0.13213913921583154 -0.03547724664132588 -0.16359324573133044 -0.012445746489178846
0.15426616238116958 0.01586528287583746 -0.05874489186410546 0.10711232457605478 0.06362253758699411 -0.13300580848732693 0.05269563735113095 0.0726509835046593
-0.0331257082869389 0.18310753581728167 0.002566747065164222 0.09675943004281043 -0.17622503204995263 -0.16413169963800403 0.014241438931657116 -0.049198215051818116
0.09925120954152664 -0.11106898286118522 0.003954711371428306 0.11511715964334006 -0.14449245321137338 -0.1543111070762659 0.08261897219888288 0.0009352884444163098
00000000: d18a 7e26 2a41 b7bf 381f 6966 0259 723f
00000010: 3ae7 3c8f 9c44 b43f 995e 3e79 21ee aabf
00000020: 5ce5 d934 e612 ac3f 273f 5e2a da4d b53f
00000030: e897 9167 f529 bf3f 569d 283b 7818 613f
00000040: db7a cb2d 0f49 b7bf 6a7b 7fe9 8884 b1bf
00000050: 62dd 8f6e 0c1d 913f 1a73 6c0f d5d7 c1bf
00000060: 99bf 7fb9 164d b0bf 4561 e2ec 8c17 c33f
00000070: 13e9 9140 377d ba3f 6d59 8dd5 ae5f bd3f
00000080: f0f8 624a 1c44 84bf 9de9 a0ec 0c78 c03f
00000090: 0763 0b52 83fe c2bf 58c9 0166 7a57 aabf
000000a0: b6ca e106 ab54 b1bf 6459 46c8 281d b13f
000000b0: f023 dd9a 5768 b03f bca0 4ea2 ba12 b5bf
000000c0: f21d fbb8 a838 b33f 7564 ac61 614b 7bbf
000000d0: ee8d 1924 970d b8bf 1c95 67db cab0 b43f
000000e0: afcc dfa8 8302 b93f 3471 7aca f12a a0bf
000000f0: 1a25 5a05 fc5f a7bf 6ed3 7902 bea3 9dbf
00000100: 784e 9d03 003f b0bf 4c03 a843 0626 b4bf
00000110: 3efd 092f 4331 b33f b360 ac74 3baf ba3f
00000120: 9d1e 5de7 3b1c 9cbf 3d66 657b 150a c5bf
00000130: 18de c735 e778 c63f 5767 977a 4e98 ba3f
00000140: 477c caa0 5227 a23f 95fc deba b629 c2bf
00000150: bff4 e2ce 045b afbf 9841 e2cd 315d c3bf
00000160: f0aa 7899 6c37 bf3f ce5e dfbd 16fb a93f
00000170: 2def 404b 22a6 c33f 609b 2387 a744 c13f
00000180: ae7c f401 c583 b23f b9cc 7673 cb7a c2bf
00000190: 2ce9 839e bcd3 983f b682 2c91 bf01 723f
000001a0: 5684 cf4a 2b65 b73f 5de9 3e57 6289 c03f
000001b0: a280 8fc3 f933 b03f ab38 5ea0 5092 59bf
000001c0: 6a05 5fe9 03e3 abbf b29c 383b 7336 bdbf
000001d0: 71fd 15f0 fc4e 85bf 9ff2 3f43 837d babf
000001e0: 71d8 58c3 9d47 bd3f 9d38 d2fe 6ab3 c0bf
000001f0: 7785 851a 2bd1 c13f e6a8 1717 01c6 c9bf
00000200: 3f74 f790 1ba1 b2bf 60a5 10b4 04fa b7bf
00000210: 3fc6 6b1a 46fd b1bf 5260 c0cc a83a acbf
00000220: 26c7 c76a 8aab 9c3f 1929 f2ae 99da a1bf
00000230: a83e 0a15 83a7 923f 65ae ee21 d213 c83f
00000240: c3a4 a184 ad1c 943f a8c0 59a6 d1c4 573f
00000250: 84d7 0264 93f4 bc3f b105 f10d 313c bcbf
00000260: e733 c7a9 b87c b73f 15a0 073f 001d b8bf
00000270: 4d1a 8a71 0cb1 b6bf 94b9 39a8 d6e5 a5bf
00000280: 885f 63ab 384a b1bf 82cb f3cb 470a bbbf
00000290: 6b0f b4ce e371 a8bf b659 a284 e857 bfbf
000002a0: ab51 831a cf10 bd3f 22b6 d90c 6322 adbf
000002b0: ff5e e892 a370 bebf 1204 1032 e0fe b33f
000002c0: 2a92 3b44 e079 833f 5b55 4a2e e9ce c63f
000002d0: d0fc 626f 3274 b1bf a1ee cc2e 3f14 cb3f
000002e0: 8eed c2ec 471e c93f b587 590f e109 893f
000002f0: a95a 11cf d596 913f affc b00a 43d2 b9bf
00000300: d95d a35e 4100 a3bf 9649 0431 dd36 c5bf
00000310: b76a 7c29 4d0f ae3f c3c3 7879 b49c b33f
00000320: 07d4 53a7 2621 c0bf eede a6d3 79e7 a0bf
00000330: 6959 aab0 79e3 b93f 74e2 b0bf 468b b03f
00000340: 7f2e c5bd 5467 a4bf 70a1 1efa d9cb b73f
00000350: ad1d 2cfc 2ddc c2bf fe1f 4a0d dc9d c4bf
00000360: 6153 d4f0 f37c b8bf 571f 11e0 2d33 70bf
00000370: 553f a764 f557 a23f 0d8b f8a3 47c7 ac3f
00000380: cba9 3062 54ef c63f f595 587c 61d9 9cbf
00000390: eb6a 9e42 b3ff a63f b8d6 b4ef 9d00 abbf
000003a0: a5b6 3f2d 6216 bcbf f091 fe92 dbb7 b63f
000003b0: df26 13f4 8c9a b83f ea35 2f69 31ee c9bf
000003c0: 320f c061 3dc5 c33f ed4a 7473 1465 b03f
000003d0: f286 ad51 cae4 a4bf 6771 a77a 9c02 a83f
000003e0: 4c3a 8a80 c250 c03f 8357 ff07 1508 c73f
000003f0: d934 09eb 6d45 bdbf 0759 5b88 d57a aabf
00000400: 1023 d723 4b5b b93f 6e85 1e03 08eb b53f
00000410: 1351 dad6 78a8 b93f bbc8 bf31 400f b33f
00000420: e0a1 fbe6 3e4b 6fbf 0ab5 0fd3 15e7 c03f
00000430: 08fe 4e29 a5eb a5bf 33b8 7b6d 91fc b03f
00000440: da25 cdc1 fcde ae3f b5d8 41b4 3db3 9ebf
00000450: 3903 6ee0 9a44 c4bf 41fd d270 b7cd a7bf
00000460: b469 913f 9bc1 c5bf 1ef4 4700 2d70 c4bf
00000470: 4da4 a09c 6924 c0bf 5325 97b9 4a52 82bf
00000480: a1ea d044 0fba b7bf 23be 99b1 9e28 c83f
00000490: d8c5 3439 5030 c03f 2ce0 44b8 abc0 a23f
000004a0: 73cf ec50 70f6 b63f 0b46 9bfe dd91 8abf
000004b0: 7ffc d0e0 f4d1 8abf a70a 77a1 9f22 b63f
000004c0: c6fe a2e3 b568 c03f 03a3 f90f 40ff bdbf
000004d0: d1a1 71c7 f773 9bbf 1fbf 58d9 6d3f bb3f
000004e0: 9439 ed6f 9648 c03f a538 8818 56f9 a73f
000004f0: ba9a 1795 6df3 a2bf e451 708d 3f42 7e3f
00000500: 5737 5220 990a c0bf 8ecc b81e 74f2 ba3f
00000510: 5f30 9276 aa9b 9ebf cec3 a48c 131b c33f
00000520: c035 c3de a60b 6b3f 8d75 5690 7627 b0bf
00000530: aa9b a9d5 53f6 8f3f 9c42 2df5 c203 c53f
00000540: 1683 2fa2 3eec b23f 619f f8a7 061b ab3f
00000550: ba90 b7e0 ca84 c2bf 6de2 dd77 dccb bb3f
00000560: 2188 45f4 2d07 b4bf c80f b3f6 5166 c03f
00000570: 1c73 494b 61e9 c33f b97e da49 7f3e c1bf
00000580: 1117 841c 2926 95bf 235c 5bd1 bce3 88bf
00000590: 20d9 717f abaf 85bf d9bf c562 8c6f 8f3f
000005a0: b1b7 4dd9 cb49 c9bf 88ea eb8f 6448 abbf
000005b0: 593c bbb9 7339 aa3f 0ae9 87d8 7836 a83f
000005c0: e87b 3f46 4c3a a73f d47e 36f2 bfde b0bf
000005d0: 9553 bb64 25a2 bcbf bc29 bbb9 2d14 c5bf
000005e0: 15b5 94e5 a8b3 c33f 7245 2efb 2284 bd3f
000005f0: d1c6 7ab5 e737 c6bf c38b 1445 b3e1 c13f
00000600: a1c4 22d3 f1e5 7b3f 07ef 5673 75db c5bf
00000610: 00c2 368a ef25 bb3f 1096 035d cd88 8b3f
00000620: 3ccc 199b 7af1 90bf 630e d3b5 dd76 c23f
00000630: 41da 101a 2e9c bfbf da07 fd8b 9403 bebf
00000640: 2448 55bf 04e5 bc3f 4380 98f9 fbdb 9a3f
00000650: 124a e7d4 0e76 91bf 7a1b e877 51aa c03f
00000660: e038 4c05 e660 a9bf 39e8 258b 3959 b83f
00000670: 39ab c16c 69bb be3f f994 71f0 ba42 a8bf
00000680: eda2 5900 a987 8abf 4681 dbdc 74a3 b4bf
00000690: 24a7 12e5 99f4 c13f 5c34 5652 45c2 bfbf
000006a0: 50f6 7d5f e9b8 ba3f 6932 c7b5 da37 93bf
000006b0: 1a4d 16c7 5ce4 c53f b478 64d3 7865 af3f
000006c0: ad93 32b7 7b33 c13f 957c b3f1 8e21 cabf
000006d0: 2cba 29cc 8633 bcbf 98a7 9258 6d15 a7bf
000006e0: a115 7dbe 13d5 a3bf ca75 d8df 3327 9cbf
000006f0: 3b19 e778 4952 b23f 3711 4555 69e5 c6bf
00000700: 17ac fc7c fd53 b73f cdb6 239a f35a a6bf
00000710: 9d22 8bb0 650f c3bf 417d 7556 47eb c53f
00000720: 280f ba70 efe9 c03f cd3a 27dc 122a a2bf
00000730: 6e9b 219c 9ff0 c4bf c1a2 29d1 277d 89bf
00000740: fe3c 275d febe c33f 46c1 5f1c fd3e 903f
00000750: 2e0e ba7a cf13 aebf 3f7d 0d9b b66b bb3f
00000760: 0184 390e 9149 b03f 29c8 d096 5506 c1bf
00000770: 8445 212e ecfa aa3f 3bbc 2c3e 4199 b23f
00000780: 399c 7f53 daf5 a0bf 7c41 fe56 1170 c73f
00000790: cfa7 76d6 db06 653f 6a0c 9ddb 39c5 b83f
000007a0: 830f b2b6 8a8e c6bf c94f 177d 4402 c5bf
000007b0: 55f3 ac93 9d2a 8d3f b398 5629 8230 a9bf
000007c0: a6bd 11fb 8668 b93f 5c20 fd50 046f bcbf
000007d0: 6222 16c0 d032 703f 0366 e073 5178 bd3f
000007e0: 70e4 878c ba7e c2bf bfab 2663 77c0 c3bf
000007f0: e592 9f57 8426 b53f cae9 faa3 c4a5 4e3f

cnn3.bias f8 [8]
-0.10553488911637927 0.004698917521296458 -0.050780551460278406 0.018226390750289232 -0.01637648682922845 0.1245457961867397 -0.037502141381250145 -0.062125536619884514
00000000: 8582 57a1 5504 bbbf 6c03 4a11 2c3f 733f
00000010: 44e8 968f e8ff a9bf e953 c960 f0a9 923f
00000020: c56d 6b6d ffc4 90bf aaf0 79b9 3be2 bf3f
00000030: 3a5e 860d 7b33 a3bf 00c6 0e18 ebce afbf

fc1.weight f8 [64, 72]
0.05573495209756886 0.03525748967314065 -0.005746109999537605 -0.0042753597130627905 -0.06483959386707906 -0.05374520093175072 0.04314347448932312 -0.1096946542205566
0.1587693421461171 0.06249676810320853 0.05450768274921266 0.1397449105737727 -0.007752878708023525 0.05878961949060618 -0.008768345019361402 0.08901339146651978
0.06300668181983582 -0.0989217926265144 0.006486234367538701 -0.05555940294424389 0.10070438736092142 0.005825024659543085 -0.08696236063790484 -0.021802540319149157
-0.0359269597371959 -0.07247698642697052 -0.11366839153175194 0.01613252801709361 0.009987431139757764 0.05660396823527614 -0.019061501477676098 0.08807452824314596
0.0018938033087282625 0.06008990563533491 0.09795364188959897 -0.06147519896909432 -0.008580758167392946 -0.10252179250360119 0.020262176976901383 0.017141004925698217
-0.0035338986329679647 -0.013075628594501005 -0.004928684761511235 -0.056521043188106884 -0.08089286491008055 0.08051632388551394 0.08457250206270345 -0.0414874839593233
-0.054411341019804875 -0.02088798069788318 0.01676087823259685 -0.01605670028551002 0.0840213025942033 0.12745918354370156 0.0451364006910417 0.008378109212835074
0.06089796125690345 -0.09106335237727121 -0.03171310966664371 -0.10251585265805185 -0.04991279309938406 0.09059879432027287 -0.004547700138437257 0.06851953208427605
0.004691551460644946 0.0688897041625526 -0.06968212361222927 -0.11822341269218617 -0.1135192669284103 0.06855425243143118 0.014408553046389149 -0.03502731254104202
0.08123519087709524 0.00971373346758188 0.08142373336759935 -0.05068656698770643 0.03401292482080689 0.03318565405601533 -0.045123456813616236 0.04007588969140281
0.03606498408685475 -0.07154489564447047 -0.057457436990306775 0.12051488344030033 -0.015900372182325435 0.056567522508674264 0.025099425947559484 -0.1530162543492129
0.06788131650760308 0.037607933245438284 0.0025159988474415165 0.03651164142713723 -0.06501943166361764 0.024608811258255047 -0.038956983935953475 -0.12932846774496476
-0.006482704210634451 0.04391652671308382 -0.07439927036961469 -0.045928161708293606 0.09990002394706757 -0.04719429940981433 -0.09910112548814867 -0.03589028403563113
0.028822141712901646 -0.007122262952743058 0.02106109976202555 0.024199602279450064 -0.07843913154416664 0.22306094555466607 -0.02381442135301726 0.09529816905932996
-0.057010427154847235 -0.020914662537118465 0.06649404295272 -0.05025061110421215 -0.011898249708121832 0.02736217432292315 -0.04587639620523155 0.033332667100537124
0.09349904184328747 -0.03518049505425116 0.038613980368248736 0.08367458620307106 0.12442610846546258 0.02503636471446405 -0.09882405158004146 -0.06875691432605323
0.10189448081086805 -0.11307639307717114 -0.07163498723246606 -0.08814073053173616 0.06929659064874936 0.00891594231136402 -0.0736604947385149 0.09572426179289112
0.16367588059051874 -0.018592899027658826 0.14231203428344913 -0.059307479999736706 -0.008501890409596596 -0.07456212524590493 0.00014046496771678504 0.09660520934761742
-0.014005861257090736 0.07356753213252269 0.07060616265157081 -0.08634343076087798 -0.004420920683891344 0.04338821398811704 -0.025338209757549038 -0.05615142620839229
0.05835134037406924 0.009594065944229914 0.07342163068709191 0.07886002640406112 -0.029001542160526035 0.05444121266895212 -0.009707112380889615 0.12166440938178023
0.08205585251018409 -0.0120335908635441 0.06068094209831246 0.008987253060317753 0.13673294635691005 0.08484727424588841 -0.051010890944291384 -0.12595335357145926
0.06874953602322954 0.02661117836910209 -0.08414848560799776 -0.03908797618861713 -0.03114912009488787 0.011642860974188294 -0.05481258759826934 0.015352752723105274
0.030917272814044706 0.0033165794559334148 0.0647064659118346 -0.08300601424451011 -0.11093292926762696 -0.07481044914837777 0.06151546554380988 0.07892680584843068
0.04992969237769553 0.028475400273134895 0.07791659422916555 0.10127047510105194 -0.054142288551979674 -0.05572922421363002 -0.01782939831016936 -0.054402990876827866
0.020187254602186164 0.05112411044637721 0.01043802996202933 0.048774386189759475 -0.027545188478597233 0.064003933312981 0.005559662612480038 0.028852115112403105
0.10581827248328417 0.0031085310934461344 -0.050460806039537 0.06939241265296087 -0.049436393586626354 0.07299964703112606 0.029568554442198268 -0.022047424002181067
-0.0031964747460573252 0.16447761790753565 0.008942878073024702 -0.01439448195325432 0.07515444163298134 -0.09904779714543985 0.05002461192951139 0.04755615438320339
0.03132348626382849 0.053074391792740434 0.06202005816223486 -0.08374377735283346 0.1127022114470208 -0.029538764405394557 0.07305474051172293 0.03784765336078292
0.0929279094720975 0.003814486727859785 -0.05492953664419823 0.06292405842512024 -0.009018985267289528 0.05317909612300606 -0.12788443409769398 -0.09129027709561068
-0.08896395683666221 0.02845897322210603 0.04259924926380111 0.11919375674695233 0.06838794670034855 0.08388422496452165 0.009682270566596419 0.019351633515432447
-0.008482949222820843 0.037435671735729446 0.10939329865798687 -0.08056542113478307 -0.020800492537689168 0.0035958074296480024 -0.04122119476072617 -0.0015343467955381558
-0.046631510770064576 -0.03040578158342927 -0.030855292700786015 -0.02151336632321939 -0.05912760472229141 -0.06286818559564007 0.023223017903812766 0.0456656664240899
00000000: 72a1 01a9 4a89 ac3f eb9e 2b0a 450d a23f
00000010: 708b 6fa8 3b89 77bf 6a00 5722 0a83 71bf
00000020: 7920 25df 5399 b0bf 1f3c a3b0 7d84 abbf
00000030: 0356 efc7 e616 a63f a25e 6ce8 f214 bcbf
00000040: 3e00 10c6 8d52 c43f c8cb 378e 93ff af3f
00000050: ebc4 9355 6ee8 ab3f b030 5946 29e3 c13f
00000060: 6657 0388 7bc1 7fbf 68e5 1c4a ac19 ae3f
00000070: fa1d c958 23f5 81bf 2937 41e5 94c9 b63f
00000080: 007e d8b5 3421 b03f 7c4c 3148 f052 b9bf
00000090: 006d b947 4f91 7a3f 01fa 4235 4872 acbf
000000a0: 3d64 4742 c3c7 b93f 30fe 9326 fbdb 773f
000000b0: ef39 ec4e 2a43 b6bf 97d6 8fb6 6753 96bf
000000c0: c95f 3bba 0465 a2bf 0f9e 6a0e da8d b2bf
000000d0: 9bc1 3728 5f19 bdbf b8dd f0a0 0b85 903f
000000e0: c734 ee50 4a74 843f 21e6 c900 32fb ac3f
000000f0: 0f4c d6b5 db84 93bf 8639 6a62 0d8c b63f
00000100: 76b6 aad1 2f07 5f3f d206 0ca7 1ac4 ae3f
00000110: cf9e 7068 7d13 b93f 89b9 2c62 ad79 afbf
00000120: 9b75 a1dd c992 81bf da25 ee41 de3e babf
00000130: 07a2 d8ad 9bbf 943f 9548 4e5e 698d 913f
00000140: 438f ca61 1ff3 6cbf dd12 8129 65c7 8abf
00000150: a4c8 cebd 1930 74bf bcb4 0e80 53f0 acbf
00000160: 2abf 4411 65b5 b4bf ace6 e1c1 b79c b43f
00000170: 5c0d 8022 8ba6 b53f 7be4 98f5 d83d a5bf
00000180: 4752 6ca4 cddb abbf 3355 e8a7 a863 95bf
00000190: 5ce9 717f c329 913f aa87 6eea 2a71 90bf
000001a0: 5b36 cf8a 6b82 b53f 5091 7220 9550 c03f
000001b0: 9a83 a749 1e1c a73f ae50 92c8 8a28 813f
000001c0: a9a2 fb7f 042e af3f ad12 5388 ed4f b7bf
000001d0: 09d2 be61 b33c a0bf 30e6 7c9a 7a3e babf
000001e0: d719 076c 2b8e a9bf 52a0 a98a 7b31 b73f
000001f0: c99a ddf5 9ba0 72bf a66e 70fd 7e8a b13f
00000200: 169e 74c1 7237 733f 7ac6 6872 c1a2 b13f
00000210: 49c5 070a b0d6 b1bf 606b 22bb e343 bebf
00000220: 0865 ec42 990f bdbf 86d9 3180 c58c b13f
00000230: 1975 ef40 3b82 8d3f 583d a993 19ef a1bf
00000240: 14f8 1958 d4cb b43f 09c9 853c cbe4 833f
00000250: b19b ee8f 2fd8 b43f 8c0f 1ef7 96f3 a9bf
00000260: d34b 7e5f 246a a13f 9be1 bbc5 b5fd a03f
00000270: d809 98f6 6b1a a7bf da54 2ab7 d384 a43f
00000280: 3d1b 5e0e 1c77 a23f a41d fd2a c450 b2bf
00000290: 2b19 92a9 0f6b adbf f5ad 0e3b 10da be3f
000002a0: 42bb 11ea 2f48 90bf 3289 6116 6bf6 ac3f
000002b0: 9060 5ff6 a9b3 993f 42d8 1760 0996 c3bf
000002c0: 3fda 6882 ab60 b13f 4bf7 b7d6 5841 a33f
000002d0: 6c74 8798 6e9c 643f 8da6 b463 a7b1 a23f
000002e0: dd88 990c 1da5 b0bf 13c9 305e 0d33 993f
000002f0: cf53 e977 2bf2 a3bf 6405 b4d1 d58d c0bf
00000300: 7566 30a9 9b8d 7abf 5724 f91b 3a7c a63f
00000310: 1871 15a1 d40b b3bf 5f4a 0161 e583 a7bf
00000320: d2e6 b847 0c93 b93f 6eaa 0be9 d929 a8bf
00000330: 72e8 f7fc b05e b9bf 34b8 5a18 3660 a2bf
00000340: dff8 3a30 8d83 9d3f 53e8 49e7 3b2c 7dbf
00000350: c763 c87a 0a91 953f 613d 77d1 c7c7 983f
00000360: 6376 b540 9614 b4bf 4508 16d5 428d cc3f
00000370: 2199 89c3 ce62 98bf 0f7f 7af7 7565 b83f
00000380: 5a76 5280 7830 adbf 994a 6a3e a76a 95bf
00000390: 395a dceb c005 b13f b2dc 97b6 72ba a9bf
000003a0: 4c19 020b 1c5e 88bf d026 756f d404 9c3f
000003b0: c138 b86a 1c7d a7bf 79a7 2bb6 fa10 a13f
000003c0: fe9b ec9e 8def b73f 6321 6e87 2d03 a2bf
000003d0: 1535 b32d 36c5 a33f 349f 3f9b b26b b53f
000003e0: a3b1 a0b2 63da bf3f 082d a3fe 21a3 993f
000003f0: d630 9875 884c b9bf 677e 679a 0d9a b1bf
00000400: 78bf b9b6 c115 ba3f bb51 3712 93f2 bcbf
00000410: 86ae 69a7 ab56 b2bf a450 1413 6490 b6bf
00000420: 9788 8fde 6bbd b13f eb65 1f85 8542 823f
00000430: e1ba e807 6adb b2bf c48e d59d 6281 b83f
00000440: 30e0 23cd 54f3 c43f 63e7 0b55 040a 93bf
00000450: f68d 89de 4737 c23f 2c9b 03ce 8c5d aebf
00000460: 036e 1b6a 7069 81bf 1b90 73e1 8016 b3bf
00000470: 807d 99e2 3869 223f a970 c576 1ebb b83f
00000480: 5a82 69e0 1aaf 8cbf 437e 8e60 52d5 b23f
00000490: af0b 7cd7 3e13 b23f 45a8 5763 9a1a b6bf
000004a0: 939f 16dc ab1b 72bf 68bc 38e0 fa36 a63f
000004b0: 54cf fd78 42f2 99bf adaa 6036 e1bf acbf
000004c0: 6735 2b15 3ae0 ad3f e7a4 babb 0da6 833f
000004d0: 95bb 9e8e c2cb b23f d2fc 5db2 2b30 b43f
000004e0: b2bc 738c 94b2 9dbf 567a eff7 b7df ab3f
000004f0: 0055 b791 52e1 83bf 4fc4 6113 6625 bf3f
00000500: 1705 fac2 9c01 b53f 1bed b239 11a5 88bf
00000510: 54fe 9a8b 9211 af3f b1ad ccaf e867 823f
00000520: 51bf 7116 7780 c13f 1574 0a0c 8db8 b53f
00000530: 76ec b078 191e aabf c299 344f 3d1f c0bf
00000540: f1be d5d0 9199 b13f 7e98 36f3 f53f 9b3f
00000550: 24bc b151 c18a b5bf 5e3b cbd6 5603 a4bf
00000560: f647 6d10 8ee5 9fbf 7298 ed58 36d8 873f
00000570: 4f93 493e 6510 acbf 2464 cb96 4371 8f3f
00000580: eda8 780e c7a8 9f3f bdbc 8709 5f2b 6b3f
00000590: 805a ee5a 9a90 b03f dd2d 8dd4 e13f b5bf
000005a0: 2602 41b7 1966 bcbf 59c9 7d10 c726 b3bf
000005b0: 18f2 6a81 f47e af3f 7e91 e511 8c34 b43f
000005c0: 231c b977 6290 a93f 028d a7c3 a728 9d3f
000005d0: 02ac 0788 57f2 b33f aa01 9ca2 dcec b93f
000005e0: 319c 52bd 89b8 abbf dfa4 db76 8a88 acbf
000005f0: b81f 99aa de41 92bf 4fba 3d75 b5da abbf
00000600: bce9 3fb9 f7ab 943f 10fe ce7c f02c aa3f
00000610: ae9a 92aa 8860 853f 2e8e 22d3 f4f8 a83f
00000620: 25ff b54e ce34 9cbf b505 65d0 8f62 b03f
00000630: c7ee 8e91 bac5 763f 5213 50ab 688b 9d3f
00000640: 438a a203 e816 bb3f 3983 51ec 0f77 693f
00000650: 37d7 56af ffd5 a9bf 645c ef7e b3c3 b13f
00000660: f49c 5f1b ba4f a9bf 5144 9ed8 1ab0 b23f
00000670: 16e6 4619 3847 9e3f 7f9f 3394 9993 96bf
00000680: f1d5 e54f 7e2f 6abf e31d eb42 9a0d c53f
00000690: ea96 d8c6 a450 823f be51 dba9 da7a 8dbf
000006a0: c779 f64c 523d b33f 7602 7b49 325b b9bf
000006b0: a5f5 7670 d39c a93f 1249 99bf 4759 a83f
000006c0: 5b1f 33ca a109 a03f b183 0212 912c ab3f
000006d0: 2d71 01d3 17c1 af3f 2953 f970 3b70 b5bf
000006e0: 9c11 5a58 0dda bc3f f377 57ec 683f 9ebf
000006f0: 3bcc 5029 b7b3 b23f b56e d482 c460 a33f
00000700: 987c 119c 1fca b73f 10ee e8f7 8e3f 6f3f
00000710: a549 f166 b91f acbf ad46 1185 ca1b b03f
00000720: 8e00 21b6 8b78 82bf bcb9 5b5d 4a3a ab3f
00000730: ebfb 0e63 845e c0bf 5984 91b2 cc5e b7bf
00000740: 4ddf 2285 57c6 b6bf e915 115d 5924 9d3f
00000750: b227 d89c 91cf a53f 0194 1d67 7b83 be3f
00000760: 31c2 845a df81 b13f 2978 dfc2 6f79 b53f
00000770: faf7 795b 4cd4 833f feb5 4a24 ead0 933f
00000780: 6599 e22b 825f 81bf 6b14 9eb3 c42a a33f
00000790: b13a 2300 3301 bc3f 425d f678 ef9f b4bf
000007a0: eea0 c26c b94c 95bf 9c85 046a f474 6d3f
000007b0: a179 ccc6 f11a a5bf 030b af53 8423 59bf
000007c0: 43e5 70db 15e0 a7bf 3064 0a76 b122 9fbf
000007d0: dfc8 3ba4 8798 9fbf f5ef 2393 9907 96bf
000007e0: b267 2531 f945 aebf fd95 1721 2118 b0bf
000007f0: 622b a559 c6c7 973f 95da ae7f 7d61 a73f

fc1.bias f8 [64]
0.06744097528394807 0.012443824512145252 -0.07263695784894479 -0.06297215248823587 0.012708917339451354 0.11418145762491318 0.05280790495732817 0.021891021294850658
0.006250588958748945 -0.09760672158487736 -0.013422880050269237 0.05927276387699942 -0.00021971454302652005 -2.850321486745391e-05 -0.0504366696747257 -5.602662787088823e-06
-6.174652599611934e-05 0.028514796043572214 0.00033822383716819194 -6.591243424560699e-07 -0.008664318308447017 -0.00014534214764066374 -0.02622795412890683 -0.009994581230286237
-0.0029936520354940416 -0.0003567621533971456 -0.007642067860313384 -1.643422916193959e-06 -0.0025735652333247028 0.057490548897071406 0.017100243267636296 0.013301943353054235
-0.011795419337477745 -7.417859904698331e-07 -0.00270055763494768 -0.000717555446457508 -4.9730227439599624e-05 -2.0103826501948534e-06 -0.00012997220362280222 -0.0013561119184378179
-2.6624107917223556e-06 -4.4579582385294634e-05 0.0007951152952274239 0.0051635658368648744 -0.002396896742674866 -0.005496533136670925 -6.110671878406357e-06 0.01048253358024721
-2.7011715039795558e-05 -0.0006335108519458708 0.0003280321103197569 -0.0033087355028067135 0.00189151072521153 -0.01316366592457707 -0.00016499679858161326 0.0032456023903130707
-2.3323907892458976e-05 -5.059604135724073e-05 -0.023502124335308832 -0.007435786377222431 -0.0012293010770523685 -0.00021902302998395642 -0.00017535287037075974 0.018821716076950167
00000000: 3641 41cf cf43 b13f 9adc 88da 257c 893f
00000010: a330 71ee 5598 b2bf 12e6 7e67 f11e b0bf
00000020: c75d b902 2207 8a3f 3101 4ffa fe3a bd3f
00000030: f724 8641 a309 ab3f 4152 2692 996a 963f
00000040: e37b 89b2 379a 793f d7aa 130d c1fc b8bf
00000050: b31b ac76 747d 8bbf 3f5d caec ff58 ae3f
00000060: aac3 b28d 65cc 2cbf 36ed cf02 46e3 fdbe
00000070: ef50 8bcd d5d2 a9bf f2dc 6038 d07f d7be
00000080: ede2 3a3d bd2f 10bf 6146 d691 fb32 9d3f
00000090: d1e7 c151 742a 363f 6d6e e2c1 d51d a6be
000000a0: ad1e 371e 99be 81bf 1177 ac8a df0c 23bf
000000b0: d108 e634 80db 9abf a09c 2bfc 0978 84bf
000000c0: c94f d1b2 2486 68bf 7eb4 02c8 7961 37bf
000000d0: 66af 8af8 494d 7fbf 62bb 0f9b 7292 bbbe
000000e0: 972d 5c50 2815 65bf 021c afb6 666f ad3f
000000f0: ea41 5ae6 b982 913f 409b 659d 0c3e 8b3f
00000100: c267 6062 3228 88bf 5498 c8a4 e4e3 a8be
00000110: d755 23d7 7a1f 66bf a01d 7a96 4a83 47bf
00000120: f403 939a ad12 0abf 3551 d28c 43dd c0be
00000130: 9485 57ba 2409 21bf fbd4 b815 f237 56bf
00000140: 5c10 cccf 7b55 c6be 645f 8dc9 5e5f 07bf
00000150: 7736 4318 e90d 4a3f acb7 6626 6426 753f
00000160: 2ac8 e423 a8a2 63bf c39c 0361 8883 76bf
00000170: 054c 2ab2 48a1 d9be 0646 40d7 dd77 853f
00000180: 7edc 5bec e652 fcbe b7b4 0432 46c2 44bf
00000190: d599 942f 777f 353f b147 d2d8 eb1a 6bbf
000001a0: c6b7 1b2d 92fd 5e3f 7ed9 2155 8df5 8abf
000001b0: 4e2f 2cb5 5fa0 25bf 792d e983 8596 6a3f
000001c0: 514d edbe f674 f8be 1f72 55be e286 0abf
000001d0: fb6f a0dd f010 98bf 8da1 f6b4 fc74 7ebf
000001e0: c96c 10fb 0f24 54bf b3a9 6f80 31b5 2cbf
000001f0: 3783 dfaf ddfb 26bf 8338 05fc ff45 933f
